mario_game/TRAINED_MODEL/model.pth (torch, 9619 bytes, 4 tensors)

linear1.weight f4 [256, 4]
00000000: fd84 5a3e 1570 923e f5e3 f83d 9ef4 813c
00000010: 6319 123e 1c85 843e 6578 99be 5929 fabe
00000020: c019 9e3e 02a6 aabe 249a 42be 462d 65be
00000030: e289 a1be 82e6 e2be 3ee4 893e 2873 7cbd
00000040: 9c1d b83e 90a5 02be c12a 08bf 27ab 32be
00000050: 2bb9 d3be 152b 5b3e c83f 2a3f a0b8 5a3e
00000060: 6a36 0e3f b265 a53e c738 bdbe c362 883d
00000070: d093 b3be 8338 78be 2867 27be 7097 24be
00000080: f073 89be 92a6 ddbe 00b4 9fbc 187f 853e
00000090: 34b7 45be eb95 bf3e c75f 2d3d 025e 193d
000000a0: a805 febe 62ec e2be c0c7 153d 0294 d2be
000000b0: f8ba a03e e467 eabe 4dc8 fb3d 1eb9 cebb
000000c0: dd25 3cbe 85f4 6c3d a79c b13d 30c1 cf3d
000000d0: 9809 e9be e8de 0d3e 383a 4c3e 94b0 1bbe
000000e0: a740 573e f354 993e 3b7c 623e c872 e5be
000000f0: 4f04 0bbf 7865 383e 620d 4d3f 9272 a2be
00000100: 482f edbd c8cd 7c3e 6304 a1be a945 6bbe
00000110: f9cf f5be a382 5a3d dea5 013f 5b23 2abe
00000120: 5e97 2dbe fe17 c93d a1ca f9bc fdb2 c8be
00000130: 283f 4ebe f449 25be 06e2 e9be feb9 a6be
00000140: c318 8d3e be8d 45bd 4220 c3be dc69 6a3e
00000150: ec6a c8be 902d 703e c4e8 03be 0692 e5be
00000160: 1286 503e 09a2 f1bd f70f 87be 6c52 5bbe
00000170: aa9d 333d f282 5fbd 4682 cdbc 725f 993e
00000180: d0ee dbbe 1762 a7be f1f2 a43e 5d39 bc3e
00000190: 07b4 89be 09ef d5be 631f 23bd 7c2c a9be
000001a0: f2a4 053e 74e2 803e 3361 f8be db88 aabe
000001b0: 1e94 94be a092 3dbe b0ac a7bd 2086 54bd
000001c0: 6e94 68be 8705 693e de10 96be d7ed ac3e
000001d0: 6cf0 dfbe cc0e c73e 98aa efbe 8676 23bd
000001e0: dbb8 5f3e 452c abbe 6db7 673e 31e0 06be
000001f0: f0d9 3fbe 54b0 0dbe 8c5f 373e fe91 90be
00000200: f131 983e 30d5 fc3d 1562 7cbe a630 293f
00000210: 3b33 76bd 5a89 f5bd 94ef 51be c298 273e
00000220: e681 723e 7653 8b3e 7f91 da3e b968 143f
00000230: 1a78 9e3e 7140 e1bc 6a32 a0be cef6 533e
00000240: b885 5dbe 79d8 e4be 20e6 4abe 82c5 603e
00000250: d0f8 a3be d44c 99be 9381 c43e 31b1 663e
00000260: d73f ba3e 1fbe 483d b731 d13e a83f bdbe
00000270: 7e54 d93e c38a 02bd 6a88 31bf 80b5 12be
00000280: a0ed d9be d997 7cbe 48a6 b93e 5294 a33e
00000290: 9471 d0be c6cb 65be f449 d23e 9149 1fbc
000002a0: 611a 08bf 56eb dc3e 08d8 15bf 1372 eb3e
000002b0: d2c4 eabe b627 6abe 246b a23b ff37 733d
000002c0: c27b 7b3e 6542 ef3e 4d85 863c a778 95be
000002d0: e051 ce3d ccfe 263e b4be f93d 2e1b 14be
000002e0: 660f ef3e b312 ad3e 6015 c9bd 40c0 0abf
000002f0: 9456 40be 39ef 78bd 29d9 a93d 31ea c73e
00000300: 7a56 cebe 00ad 923b c8ce 47be f887 85bd
00000310: 08e7 8e3e 8214 5e3e 75a8 c7be 661b d5be
00000320: 0075 33bb fa65 dfbe aade ccbe 001b 69bc
00000330: fd95 e9be 5998 10bd e0da 26bd 7124 86be
00000340: 2804 103f 491e 7e3e ba04 f03e 53d0 3ebf
00000350: ac0d 403d d81b 2b3f cb93 bdbe ff76 12bd
00000360: 4067 91be acc1 173e 6e9f f3be 4ab5 a73e
00000370: 34d0 bc3e 5cc0 313e b097 d7be 24be d7be
00000380: a223 8c3a dc55 ea3d 2c09 f9be 13a0 01be
00000390: ff7d 16be 8bf6 8bbe 9661 00bf 97a3 373c
000003a0: 7154 593e 0e52 bcbe 7e52 87bd 5cb7 8bbe
000003b0: fec2 cc3e 244d 2f3e 82e1 ca3e 6135 ddbe
000003c0: 4ab6 12be a2f4 f4be 1a7a e5be 142a aebe
000003d0: 0bf4 0e3f 18e6 5d3e f387 893e 3637 c73e
000003e0: c89a 18be 44b5 b4be 60a6 a1bc 62a9 91be
000003f0: 0d0a 423e e892 fd3d d5af 283e 3c16 b0be
0.21339794 0.28601137 0.12152854 0.015863713 0.14267497 0.25882804 -0.29974666 -0.4885967
0.3087902 -0.3332978 -0.19004112 -0.22380552 -0.3155051 -0.44316489 0.26931947 -0.06163326
0.3596009 -0.1275847 -0.5319024 -0.17448102 -0.4135221 0.21403153 0.6650357 0.21359491
0.5555178 0.3230415 -0.3695738 0.06659462 -0.3507371 -0.24240308 -0.16347945 -0.16073394
-0.26846266 -0.43291146 -0.01949501 0.26073527 -0.19308168 0.37419066 0.04232767 0.03744317
-0.4961369 -0.4432097 0.03656745 -0.41128546 0.31392646 -0.45782387 0.12294064 -0.006308689
-0.18373819 0.05785038 0.08672457 0.101442695 -0.45515132 0.13854563 0.19944084 -0.15204078
0.21020757 0.29947624 0.22117703 -0.44814134 -0.5430345 0.18007457 0.80098546 -0.31728035
-0.11581284 0.24687874 -0.3144866 -0.22975792 -0.48010233 0.05334724 0.5064372 -0.1661505
-0.16952273 0.09819029 -0.030492129 -0.39199057 -0.2014128 -0.16141492 -0.45680255 -0.32563776
0.27557954 -0.04823088 -0.38110548 0.22891945 -0.39144075 0.2345488 -0.12881762 -0.4483797
0.20363644 -0.11798484 -0.26379368 -0.2141816 0.043851532 -0.05456824 -0.025086533 0.29955631
-0.42955637 -0.32692024 0.322166 0.36762515 -0.26895162 -0.41783932 -0.039824855 -0.3304175
0.13051203 0.2517277 -0.48511657 -0.33307537 -0.29019254 -0.18512964 -0.081872344 -0.051885724
-0.22712871 0.22756015 -0.29309744 0.33775207 -0.43738115 0.38878477 -0.4680984 -0.039907955
0.2184786 -0.33432212 0.22628565 -0.1317146 -0.1873548 -0.13836795 0.17907542 -0.28236383
0.29725602 0.1234535 -0.2464679 0.66089857 -0.06010745 -0.11989088 -0.20501548 0.16366866
0.23682365 0.27212113 0.4268913 0.57972294 0.30951005 -0.027496548 -0.31288463 0.20699617
-0.21633041 -0.44696406 -0.19814348 0.21950343 -0.32025766 -0.29941428 0.38380107 0.2252853
0.3637683 0.04900944 0.40858242 -0.36962628 0.42447275 -0.031870615 -0.69348776 -0.1432705
-0.42564106 -0.246673 0.36259675 0.31949097 -0.40711653 -0.22441015 0.41072047 -0.009722129
-0.5316525 0.43148297 -0.5853276 0.4598547 -0.45853287 -0.22866711 0.00495662 0.059379574
0.24558929 0.46730343 0.016420985 -0.29193613 0.1007421 0.16308135 0.12194577 -0.14463493
0.46691436 0.3380333 -0.0981853 -0.541996 -0.18783027 -0.060775016 0.08293373 0.3904586
-0.4030035 0.0044761896 -0.19512475 -0.065200746 0.27910638 0.2168751 -0.3899571 -0.41622466
-0.002738297 -0.4363249 -0.4001363 -0.014227629 -0.45622244 -0.03530154 -0.04073608 -0.26199678
0.5625634 0.2481624 0.46878606 -0.7453663 0.04688804 0.6683936 -0.3702682 -0.035758015
-0.28399086 0.14819974 -0.47582573 0.327555 0.36877596 0.17358536 -0.42107916 -0.42137253
0.0010691772 0.114421576 -0.4863981 -0.1265872 -0.14696501 -0.27336535 -0.50148904 0.011208436
0.21223618 -0.36781353 -0.06607531 -0.2728833 0.39992517 0.1711927 0.39625174 -0.43204787
-0.1432735 -0.4784289 -0.4481972 -0.34016478 0.5584113 0.21669805 0.26861534 0.3890931
-0.14902794 -0.35294545 -0.019732654 -0.2844954 0.18949147 0.12381536 0.16473325 -0.34391963

linear1.bias f4 [256]
00000000: ea36 e83d f5c6 da3c ae83 98be c702 433e
00000010: 791e 923e d79f bebe bc38 dfbe 6a47 ce3d
00000020: 629c b8be 8dce 00bf 00f2 4ebe 8edf f3be
00000030: 02a1 91be 24ed ddbe 7482 8d3e 0c53 103e
00000040: 4672 8dbe 397e 713e 5beb cabd 80d7 05be
00000050: 54e6 fe3e 5680 adbe 8258 163c 48b6 cbbe
00000060: c49a a83e a185 a03e 0cd4 99bc f48d febe
00000070: 68f2 20bd 3497 0d3f b864 e7bd 8a4b 93be
00000080: 2f41 b03d 93b5 27be 17ba de3c 0501 0abf
00000090: 93c4 8c3e 84f0 a03c f6c8 2fbd b488 443e
000000a0: 5c53 ac3c 9818 ecbe d067 333c bfb2 d63e
000000b0: 4a73 05bf f292 afbe f3e3 bcbe e8fb 01bf
000000c0: 8e37 a3be baf9 8a3d 3029 3abe d867 813e
000000d0: b2a4 6f3e 3ef6 80bd 2eaa fdbe b627 c5be
000000e0: 3b9e b23e 21b0 37bc 9932 7dbe 8a5f 913d
000000f0: ac02 a23e f089 943d 1eb5 f8be 895c b7be
00000100: 9822 d13e 77d5 06bf 3f31 80be d818 103c
00000110: 0145 48be 4a7c 393e edc7 5dbe 0882 8abd
00000120: b048 f4bc 0247 1ebe 8660 633e fc84 9e3e
00000130: 4739 c5be 0759 8e3e 1690 1a3f 43bc 3d3e
00000140: db49 a2bc 45a3 11be 24d7 78be 0973 f3bd
00000150: f3e4 d0be 5c97 09be 374c ccbe ee16 0fbf
00000160: 346b 503e 2776 6bbe 7d3f d43c d022 dc3c
00000170: 83e4 adbc 6fd1 823e 3d7f 1fbf 3718 acbe
00000180: 8709 bbbe 0a1d 443e a208 8cbd b762 ddbd
00000190: 5e57 613e c843 b5bd 44e8 6ebd 8eba 6a3e
000001a0: 2ae6 333e 886c 95be 98df f43d 55b7 73be
000001b0: 5208 e4be 3e29 8cbd 82b4 7ebd 324e 03bf
000001c0: a329 85bd fccb 113d 7c7a a6be e05c 5bbe
000001d0: 9cf8 393e ddbe f63d 8cea dcbe a99c a53e
000001e0: 8e90 9d3e e71f 823e fc6a 7fbe 4cc4 87be
000001f0: 4916 8fb9 859f f43e 3c0b 3abe c3f7 613e
00000200: 022a 93be c8ca 973d cc78 5abe 0444 583e
00000210: 1630 113e d7f0 dd3d 7c8a 923e 694f 9c3e
00000220: 0f12 903e 4cd4 acbe f26a e8be d48f 9fbe
00000230: e45a 15be 48c1 adbe b010 bdbe c81e 6dbe
00000240: be22 99be b119 ebbe 0b48 103f f38c 43be
00000250: dab1 a3be a7f3 2e3d 5751 54be 2677 ccbe
00000260: 4090 3a3c 1c20 2d3e 39b4 16be cb35 e8bd
00000270: e7fa cc3e 52b3 cfbe cfbc 0bbd dad0 a3be
00000280: ea39 73bd 5637 1fbf d4e5 933d a08b 12be
00000290: c41b c43e 84ff 403e 9c31 0cbe efc4 0fbe
000002a0: 6ada a33e 6844 b3be 4dac 08be 227e a6bd
000002b0: a808 a5bd 71fd 783e 6fac bdbe 6f32 903d
000002c0: 5530 483d 6cba ff3b bf69 ae3e b256 8bbe
000002d0: e7c3 a2be 41b7 8bbd 51b2 2fbe 5dec 803e
000002e0: 5354 9ebe 2d8a 93bd d8af 863e 0877 8bbe
000002f0: f1df c1be 93c6 1c3f 3572 e0be a5a7 7bbe
00000300: 1665 03bf 3b88 09bc a8ad 77be 6f6c 9b3e
00000310: 8c13 46be 3fcb b2be ce6c c83d 77a8 b7be
00000320: 1e6e 6f3d 3ac9 44be 46fa 643e 0f3c 89bd
00000330: efbd 67be bddd b6bd efd7 c33e eed2 253e
00000340: 799b 0cbf 6f6a 6abe 0cb7 573e 4e90 92be
00000350: c0a6 a8be f099 e2be d4f5 91be 2e97 d1be
00000360: 592c 3bbd 62af 89bd 3f62 f1bd 1c08 a1be
00000370: c462 93be 55fe 343d 8c11 04be 6322 f9bd
00000380: e64b ebbe 3826 e5be 19cf 91be 0477 35bd
00000390: 6ea2 c7be 9273 14bf 861e e8be 5dc7 823e
000003a0: f366 0a3e 9ab4 89be 1426 c9bc bb9f 2d3e
000003b0: 5266 5abc 479f 6b3e 72eb 03bf 7024 b3bd
000003c0: 3b71 bc3e 0416 543d d015 49be 864f 6cbe
000003d0: 0ab8 c23d 83dd fabe 1365 c33d 77a2 60be
000003e0: 80a0 c83e f96c a33d 23bc f0be fc49 603e
000003f0: c8cf fdbe 716a 173e 12f0 813e 6a7d c7be
0.11338599 0.026706198 -0.29787964 0.19044028 0.28538874 -0.37231323 -0.43597972 0.10072215
-0.3605681 -0.5031517 -0.20209503 -0.47631496 -0.28443152 -0.43344986 0.2763859 0.1409418
-0.27626246 0.23583306 -0.09908172 -0.13070488 0.497851 -0.33886975 0.009176375 -0.39787507
0.32930577 0.3135195 -0.01877787 -0.49717677 -0.039293677 0.5530884 -0.112985075 -0.2876857
0.08606183 -0.16377859 0.027188344 -0.53907806 0.27493724 0.019645937 -0.04291626 0.19192773
0.021035843 -0.46112514 0.010950044 0.41933247 -0.5212904 -0.34291798 -0.3689266 -0.50775003
-0.31878322 0.06785913 -0.18179774 0.2527454 0.2340267 -0.06296967 -0.495439 -0.3850686
0.34886345 -0.011211426 -0.24726333 0.07098301 0.31642663 0.07252872 -0.4857568 -0.35812786
0.40846705 -0.5266947 -0.25037572 0.008794986 -0.19557573 0.18113819 -0.21658297 -0.06763083
-0.029819816 -0.15456775 0.2220479 0.30960834 -0.38520262 0.27802297 0.6037611 0.18528847
-0.019810608 -0.14222439 -0.2430082 -0.118871756 -0.40799674 -0.13436645 -0.39901897 -0.5589436
0.20353395 -0.2299429 0.02590918 0.026872069 -0.021227127 0.2555041 -0.62303525 -0.33612224
-0.36530706 0.19151703 -0.06837584 -0.10809844 0.22005984 -0.08850819 -0.058326975 0.22922727
0.1756827 -0.29184365 0.119567096 -0.23800404 -0.44537598 -0.06843804 -0.062183864 -0.5129119
-0.06502082 0.035594925 -0.32515323 -0.21422148 0.18161243 0.12048123 -0.43147695 0.32346085
0.3077435 0.25414965 -0.24943155 -0.2651695 -0.0002729169 0.47777954 -0.18168348 0.2206717
-0.28742987 0.07411724 -0.21335143 0.21119696 0.141785 0.10836952 0.2862128 0.30529335
0.28138778 -0.3375572 -0.45394093 -0.3116442 -0.14585453 -0.33936524 -0.36926794 -0.23156273
-0.2990932 -0.45918038 0.5635993 -0.19096737 -0.31971627 0.042712834 -0.20734154 -0.39934653
0.011386931 0.1690678 -0.14717187 -0.11338385 0.40035173 -0.40566498 -0.03411561 -0.3199528
-0.059381403 -0.6219381 0.072215706 -0.14311075 0.38302433 0.18847471 -0.136908 -0.14039968
0.32002574 -0.35013127 -0.13346978 -0.08129527 -0.08058292 0.2431543 -0.3704562 0.070408694
0.048874218 0.0078042056 0.34065053 -0.2721458 -0.31790087 -0.06822062 -0.17157866 0.2518033
-0.3092371 -0.07204089 0.26306033 -0.2723925 -0.37866166 0.612405 -0.43837133 -0.2457567
-0.5132612 -0.008394296 -0.24187338 0.30356166 -0.19343394 -0.3492069 0.09786378 -0.35870716
0.058454625 -0.19217387 0.22361097 -0.067009084 -0.22631048 -0.08929012 0.38250682 0.16193745
-0.5492473 -0.22892164 0.2106592 -0.2862572 -0.3293972 -0.4425807 -0.28507864 -0.40935653
-0.04569659 -0.06722905 -0.11786317 -0.314515 -0.2878629 0.044187862 -0.12897319 -0.12164762
-0.45956343 -0.4475572 -0.28478315 -0.044302955 -0.38991112 -0.57988846 -0.45335788 0.25542727
0.13515835 -0.268956 -0.02455429 0.16955464 -0.013330059 0.23009978 -0.51531136 -0.08747184
0.36805138 0.05177881 -0.19637227 -0.23077211 0.09507759 -0.48997125 0.09540763 -0.21936975
0.39184952 0.07979769 -0.47018537 0.21903223 -0.49572587 0.14786698 0.25378472 -0.3896287

linear2.weight f4 [3, 256]
00000000: 69ce ddbd d5f3 7bbe d91e 93ba 09da 803d
00000010: e5bb 1e3e 3b02 5dbe fbc5 8e3e 8ae6 b13d
00000020: 301b a83c d077 fa3a 60c1 e4bc bbad c4bc
00000030: 0e2c 193c 5045 cebc 23fb b3bd e485 1e3e
00000040: b76b 863d e136 65be e3e2 b6b9 20c4 c7bb
00000050: f333 efbd b086 ff3b ddce 103b 265a 793d
00000060: b9bd 5cbe 9672 813e ec03 debc b8d5 69bc
00000070: 1141 a23d d0a2 d1bd df9d 90bd 1086 b6bc
00000080: 9939 97bd fbe2 9dbc ccb2 91be 2ac8 263a
00000090: 2737 debd 5752 d6bd e071 f0bd c399 243e
000000a0: b27a 1bbe cde9 b43d e9dc 9abc 6dd9 81bd
000000b0: 2aad adbd 5357 7dbd d654 66be fa7c 23bd
000000c0: 48da 04bd e003 90be 686a 7f3c ac98 253e
000000d0: 94bb d7bd 4112 bd3d 0cce 753d c293 123d
000000e0: 8c5f eabd b990 693d 1a67 95bc 9f75 1bbe
000000f0: d4be 0bbe 6f0e 34be dc88 393d a3a9 e4bc
00000100: 88c2 eebd 31d4 ea3c 34f3 17ba db86 73be
00000110: 5c10 48be 7e9e ccbd d2b7 81bd 6d65 4cbe
00000120: b118 20be 1c3c 45bc a54d 7dbc 4f1f 27be
00000130: 03e1 78bc c200 1fbd b453 bebd dde7 2c3e
00000140: c2c2 22bd 38fb afbc 8525 43bc 3b94 e33c
00000150: ee51 d5bc 34fc 9c3e ce24 033d 24e6 22bc
00000160: 9960 89bd e7e1 8d3e 39df 153e 6257 60bd
00000170: f3fc 04b7 ea6a 833e 50f8 1cbb 126b 113c
00000180: 1197 823c 2b5c d6bd e982 e3bd 29f3 083e
00000190: b1da 8f3d 3609 063d ccaf 003e eff4 2b3e
000001a0: 795c 5d3e cb8b d83e b9b2 32be 2844 e73c
000001b0: e408 dc3c 802e bebd eb02 abbc e060 7abc
000001c0: 9d2b b63c 29fd 10be a8a7 ba3c f1b2 febd
000001d0: 1126 90be 59e2 18be baa2 493d de63 98bd
000001e0: 9613 8abd 4abb 2cbd 28b1 843c 621a 60bc
000001f0: 80ae 1abd 8017 9cbd 4869 36bc 9c42 56be
00000200: 4beb c23c 9798 f83e f320 c5bb 07a3 283e
00000210: 10cd 483e ad44 813d d48e c3bd 7dd4 cc3d
00000220: 6d6a 19be 92ae 78bd 8e59 ab3b 4c65 33bd
00000230: 50e5 483d 9eca 7ebd 3c7c ee3c 70e2 c63c
00000240: b695 193d 3d90 d1bd 15f9 3cbe 0251 253a
00000250: 1a19 afbc 7b25 0fbd 1fee 06bb 72c6 0e3d
00000260: ca93 b0bd 9d6e bebd 8329 c13c 0305 a439
00000270: abff 303e af41 60be 586f 02be 204b 7bbb
00000280: 310a a13d 968e b9bc 3213 97bc ac7c 253e
00000290: 57ac c1bd cbed adbd 5a09 1e3d 99e4 ba3d
000002a0: 95a3 a2bd 1018 67bc cffd 1b3e a7ef 8cbd
000002b0: 069f da3e f041 8a3e be17 e33e fd8a 08be
000002c0: 7571 b53e c0cf 43bc 312e 91be 0011 bf39
000002d0: 418b 38bd 9184 edbd 1c00 6a3c 0c3c e93d
000002e0: 7579 693e f925 ac3c 3bc7 683d d8a5 043d
000002f0: 4c18 1bbe a8c0 18be abad 45bd 881d ebbc
00000300: 016d 303d 1211 a1bd 16a2 c73c 80f1 1fbd
00000310: d6a2 563d ede4 af3a 083a 973d a1bd e93c
00000320: b13e 89bd 879c 483e a579 083e 408e 92bd
00000330: 292e 623e 6c44 65be 2933 d03e d2ab 91bc
00000340: a819 5e3d abd0 06bd 80da 953e 89c0 d23b
00000350: 2a3f 66bb 6f8d f03b cd03 a23e 2804 5abd
00000360: 1ac1 67bd d4d9 ba3c 1e64 cabd 588b 1fbd
00000370: 101a 043d 7c27 a1be 8077 db3b 99cd e5bd
00000380: 5fc4 1a3d 443b 79bd e3ff 263d f1c4 b53e
00000390: 99a4 07bc 5026 a03c f6f9 7ebd 5241 53bd
000003a0: cf28 f73a b04d 753d 05b9 953e 61a2 7e3e
000003b0: dd65 00bd 29ff 23be 350d 513d be3b 29bd
000003c0: b88e de3d a793 26bd e642 b5bd 7fe9 0bbe
000003d0: af09 e3bd 0924 19be 32ce 3e3d 1b2c 803c
000003e0: e9d2 44be 1e3c dbbd 4fac 8b3c 15bd 90bd
000003f0: 8677 45bd 5f01 5dbe 9490 c83d 5dc9 fdbc
-0.10830385 -0.24604733 -0.0011224403 0.06291587 0.15501364 -0.21582882 0.27885422 0.0868655
0.020520777 0.0019109193 -0.02792424 -0.024008622 0.009348882 -0.025179535 -0.08788135 0.15480763
0.06563514 -0.22384216 -0.0003488279 -0.006096378 -0.116798304 0.0077980384 0.0022095956 0.060876988
-0.21556748 0.25282735 -0.02710148 -0.014272146 0.07922567 -0.10236132 -0.070613615 -0.022280723
-0.07384033 -0.019273272 -0.28456724 0.0006362224 -0.10850363 -0.10464924 -0.1174047 0.1607428
-0.15183523 0.088336565 -0.018904166 -0.06340299 -0.08480294 -0.061850857 -0.224933 -0.03991411
-0.03243473 -0.28127956 0.015589334 0.16171521 -0.105338246 0.09231997 0.060010955 0.035785444
-0.11444005 0.057022784 -0.01823764 -0.15181588 -0.13647014 -0.17583631 0.045296535 -0.02791292
-0.11658198 0.028665634 -0.0005796433 -0.23781912 -0.1953749 -0.099911675 -0.06333889 -0.19960566
-0.15634419 -0.012038257 -0.015460406 -0.16320537 -0.015190366 -0.038819082 -0.09293309 0.16885324
-0.039736517 -0.021482095 -0.011910801 0.027780643 -0.026040044 0.30661166 0.03201752 -0.009942565
-0.06707878 0.27711412 0.14635934 -0.054770835 -7.926707e-06 0.25667506 -0.0023951717 0.008875625
0.015941175 -0.104667984 -0.111089535 0.13374008 0.07024134 0.032723628 0.12567061 0.16792654
0.21617307 0.42294154 -0.1745099 0.028230742 0.026859708 -0.09286213 -0.020875415 -0.015281886
0.022237593 -0.14159073 0.022785023 -0.12436474 -0.28154042 -0.14930095 0.049227454 -0.07440923
-0.06742017 -0.0421708 0.016197756 -0.013678165 -0.037764072 -0.0762167 -0.011133499 -0.20923847
0.023793837 0.48553917 -0.0060158907 0.1646844 0.19609475 0.06311927 -0.09548727 0.100014664
-0.14982004 -0.06071336 0.0052291816 -0.043797776 0.049046814 -0.06220495 0.029111974 0.024277896
0.03749629 -0.102325894 -0.18454392 0.00063063216 -0.021374274 -0.034947854 -0.0020588709 0.03485722
-0.086219385 -0.092984416 0.023579365 0.00031284252 0.1728503 -0.21900056 -0.12737787 -0.0038344339
0.07863272 -0.022650998 -0.01844177 0.1616084 -0.09456699 -0.08492621 0.038583137 0.09125633
-0.07941357 -0.014104858 0.15233539 -0.068816476 0.4269945 0.2700343 0.4435405 -0.1333427
0.35438123 -0.011951387 -0.28355554 0.00036443025 -0.045054678 -0.11597551 0.014282253 0.11388406
0.22800238 0.0210142 0.056830626 0.032384723 -0.15145987 -0.14917243 -0.048261326 -0.028700605
0.043072704 -0.07864584 0.02436928 -0.03904867 0.052401386 0.0013419666 0.073841155 0.028532805
-0.067014106 0.1959096 0.13327654 -0.07156038 0.22087921 -0.22389382 0.40664032 -0.017782126
0.054223686 -0.032913845 0.29268265 0.0064316434 -0.0035132864 0.007341079 0.31643525 -0.05322662
-0.05658064 0.022808947 -0.09882377 -0.038951248 0.032251418 -0.31475437 0.006697595 -0.11220855
0.03778493 -0.060847536 0.040771376 0.35501817 -0.008278989 0.019549519 -0.0622501 -0.051575966
0.0018856766 0.05988854 0.2924272 0.2486663 -0.031347144 -0.16015305 0.051037986 -0.04131674
0.10867065 -0.040668156 -0.088506505 -0.1366329 -0.110858314 -0.14955153 0.046583362 0.015646031
-0.19221081 -0.10704826 0.017049937 -0.070673145 -0.04820969 -0.21582554 0.09793201 -0.030979807

linear2.bias f4 [3]
00000000: a2cd 87be 01eb 99bd 0f4c 4cbe
-0.26524073 -0.075155266 -0.19950889
