shooter_game/model/model.pth (torch, 17811 bytes, 4 tensors)

linear1.weight f4 [256, 12]
00000000: dea2 8b3d 5aeb c63d 9ac5 51be 5ce9 f93d
00000010: 6ee4 6ebe 32aa 483e 9add 5bbe 267e b5bd
00000020: f070 503e caa5 3bbe 789d e03d 00af ff3a
00000030: a920 883e bab5 8cbe ee29 dabe 53ad ca3e
00000040: d415 aabd 2d88 bebd 910d 4dbe 230a ce3d
00000050: 25f3 85bd 29cd f23c f3c0 2cbe ef5a 18be
00000060: bd2d 4a3d b502 653c 964a 7cbd 5161 f4bd
00000070: 8583 e5bd e467 9abd a5e4 d1bd 7a18 4bbd
00000080: a5d9 2f3e 44a8 a7bd 68a3 81be d003 893d
00000090: 2471 273e 1f07 a2bc 3f0c 87be 339e 383e
000000a0: bb46 b8be 4131 9e3e 5c55 3bbc 2029 f63d
000000b0: 0af3 863e 41ed 84be b5fe 20be 885d 8f3d
000000c0: 153a 82be 5171 c0bd a32f 3ebe 7001 7bbe
000000d0: 0eb5 97bd 5e1e 8ebe 9f1c 1b3e 6272 83bb
000000e0: ca9b 843e 66ec a2bc 5689 243e 8007 193d
000000f0: 3ec9 e93c 9992 09bd 3bd6 763d 1f10 f1bd
00000100: 17ec 3ebe 0ae4 bf3d 293e 84be 8995 f2bd
00000110: 1ddc c2bd bf5d b23d 9149 2cbe 2473 42be
00000120: 8b6b b03d 7bd8 e93d 9f63 4cbd 0ec0 68be
00000130: 8abc c1be b59c fe3d cf8e 8a3d dd56 4b3e
00000140: 0ab6 3ebe 701e 9fbe 9722 3b3e 4adb 533e
00000150: 9aa6 b83d ac8f 253e d911 a63d 61c3 4b3c
00000160: 4601 84be a641 38be c818 473d 14ba 643e
00000170: bd2d debd d612 28be 350b b73d 3e5e 923e
00000180: 41fc 7ebd ac8e 21bd 3bf0 5fbe 22bd 0e3d
00000190: 4cf2 efbd 065e 03be 853c 42bd 1387 69bd
000001a0: d401 313d 20ab 263e 5f3d cf3c 98c1 6e3e
000001b0: 7ee3 d2bd fb59 a0bd fc0d 02bf cea0 5fbe
000001c0: 399d 93be b69b fbbd 9c9f 563d 1b58 c6be
000001d0: de69 1cbe 73b6 0c3e e7fa a5be 2090 8bbc
000001e0: 36fc 453b f67a 12be b202 17be f415 173e
000001f0: b291 493e 05d9 32bd b0a5 6f3e acd8 1a3e
00000200: c2ff 77be 8030 20bb b212 2c3d 3a0a 11be
00000210: 4262 1dbe 2ec5 08be 6bed e3bc b8bb 253e
00000220: 1976 91bc f620 bcbd 052e c33d 9eb1 633e
00000230: 2046 0fbe 1369 1dbe d692 b73d e07f c4bc
00000240: d8c1 03be 5364 a0be a907 d73e 33a8 a2bd
00000250: 5a51 243d 416b cc3e 79d6 74be 575f 733e
00000260: 4b6c 49be 3b4f 2a3d 2974 423e 6ea5 5abe
00000270: c7fd 8bbe 6f32 a2be adee 71be f588 313d
00000280: 5b00 413e a16c 24be 298f 0c3e 3bdd 3dbe
00000290: f9b9 eb3d fe4e 803b 8b45 123e f2bb b5bd
000002a0: 7123 d1be d699 9bbe 600a ca3e 9923 03be
000002b0: a86b d5bb a2ad c03d 43e0 e73d b361 1abe
000002c0: 7963 d2bd 828c 563e 6374 3f3e e6fb 8dbe
000002d0: cf09 0fbe 7b55 813e 4829 3abe 1f1b 93be
000002e0: 1a66 84bc 7af6 d4bd 9470 00be d1bf 23be
000002f0: 8592 ae3d a2db 38be 34ac ad3d d480 9ebd
00000300: 7737 5bbd 2f0f 46bd acc8 87be 8509 273d
00000310: 7241 48be 3ca1 dfbc a0b6 f3bc 9da4 a93d
00000320: 0040 45be b93b 213e e0f6 ae3d 4397 80be
00000330: 9013 0b3e 8110 d53e 2d50 c2be 8569 9fbe
00000340: 4601 fd3c 3b59 9c3c 371b 1a3e bfa8 e63c
00000350: 71cc d2bc d879 99bd 1f88 293e 7c33 f33d
00000360: caaf 523d da47 5e3e 7d14 a1bd f364 2abe
00000370: 196a 9cbe 5828 dbbe f82d 61be 5a81 c23d
00000380: cc19 ddbd 48e1 65bd 88ca b1be c0c2 5f3e
00000390: a370 dcbe a853 25bf 1d8a 863d 4912 943e
000003a0: 296b 0b3e 51f6 9c3e a99d 48bd a054 bb3d
000003b0: bfdd 53be b2aa 1abe 1a59 2e3e d024 45bd
000003c0: 4902 46bd 60af cabe 735a aa3d 6fdb c2be
000003d0: ebd5 4cbe af8a 743e 3ef9 863d 08a1 12be
000003e0: 9a9d babd 2dee fcbb 5f83 d2be 9c63 8bbe
000003f0: 43cb b2bd 2653 0abe 2d56 63be 0902 babd
0.06818174 0.097128585 -0.20485535 0.12202713 -0.23329327 0.19596174 -0.21471253 -0.088619515
0.20355582 -0.18324962 0.10967535 0.001950711 0.26587418 -0.27482396 -0.42610115 0.3958536
-0.08304945 -0.09303317 -0.20024706 0.10060527 -0.06540517 0.029638844 -0.1687048 -0.14878438
0.049360026 0.013977696 -0.06159457 -0.11932624 -0.11206726 -0.07539347 -0.102486886 -0.04958389
0.17172869 -0.08186391 -0.25319982 0.0669018 0.16351753 -0.019778786 -0.2637653 0.18029098
-0.35991463 0.30896953 -0.0114339255 0.12019563 0.263573 -0.2596226 -0.15722163 0.070002615
-0.25434938 -0.093966134 -0.1857286 -0.24512267 -0.0740758 -0.27757543 0.15147637 -0.004011438
0.25900108 -0.019888114 0.16068015 0.03736067 0.028538343 -0.033587072 0.0602629 -0.11770653
-0.18644749 0.09369667 -0.25828674 -0.11844928 -0.095146395 0.08709287 -0.16824938 -0.18989235
0.08614262 0.114182435 -0.049899694 -0.22729513 -0.37839156 0.12432233 0.0676552 0.19857354
-0.1862413 -0.3107791 0.18274914 0.20689121 0.09016152 0.16168088 0.08108873 0.012436719
-0.25782222 -0.17993793 0.048607618 0.22336608 -0.10848568 -0.16413435 0.089376844 0.28587526
-0.062252287 -0.039442703 -0.21868984 0.03484834 -0.11716136 -0.12828836 -0.047420997 -0.057013582
0.043214634 0.16276217 0.025297819 0.23316038 -0.10297297 -0.078296624 -0.5080259 -0.21838686
-0.2883089 -0.12285559 0.05239831 -0.38739094 -0.1527476 0.13741474 -0.32417986 -0.017036498
0.0030210144 -0.14304718 -0.14747122 0.14754468 0.19684485 -0.043663997 0.23403049 0.15121716
-0.24218658 -0.002444297 0.042010017 -0.14164057 -0.15369514 -0.13356468 -0.02782317 0.1618489
-0.017756509 -0.09185974 0.09530262 0.22235724 -0.13991594 -0.15372114 0.089635536 -0.023986757
-0.12866914 -0.3132654 0.41998032 -0.07942238 0.040116645 0.39925578 -0.2390994 0.23766838
-0.19670217 0.041579466 0.18989624 -0.21352169 -0.27342054 -0.31679103 -0.23626204 0.043343503
0.18847792 -0.16057064 0.13726486 -0.18541424 0.11510081 0.0039156666 0.14284341 -0.08873738
-0.40847352 -0.30390805 0.3946104 -0.12806548 -0.0065130778 0.09408118 0.113220714 -0.15076332
-0.10272879 0.20952037 0.18696742 -0.27731246 -0.13968585 0.2526053 -0.1817981 -0.2873163
-0.016161967 -0.10398574 -0.12542945 -0.15991141 0.0852404 -0.18052533 0.08480111 -0.07739416
-0.053519692 -0.048354324 -0.26520288 0.040780563 -0.19556215 -0.027298562 -0.029750168 0.082833506
-0.19262695 0.15745439 0.085431814 -0.25115404 0.13581681 0.41614154 -0.37951794 -0.31135193
0.030884396 0.019085517 0.15049444 0.028156636 -0.02573225 -0.07493943 0.16555832 0.11875054
0.051437177 0.21707097 -0.07865236 -0.16640072 -0.30549696 -0.42804217 -0.21990192 0.09497328
-0.10795936 -0.056123048 -0.34724832 0.21851635 -0.43054685 -0.64580774 0.06569312 0.289202
0.13615097 0.30656675 -0.04897848 0.09147 -0.20690058 -0.15104178 0.17026177 -0.04813081
-0.048342023 -0.39586926 0.08318033 -0.3805804 -0.20003478 0.23881029 0.06590508 -0.14319241
-0.09112091 -0.0077188225 -0.41115853 -0.27224433 -0.08730175 -0.13508281 -0.22200842 -0.090824194

linear1.bias f4 [256]
00000000: 258f 60bc df00 823d b541 10be da73 c6bd
00000010: 4dd9 55bd 21c4 3bbe 33f1 90be c761 aabe
00000020: d1f7 a8bd 5898 c23e 9658 afbe a23f 98bd
00000030: d189 bbbc c489 cbbd d7ef d13b 6b4e 8cbe
00000040: 83af 62be ccd5 1b3e ca8f 763e e1c3 fdbd
00000050: b8c9 4abd 76ac a9bd 6870 b5be df8b 11bd
00000060: 2c56 84be 3064 dcbc 1b01 4dbe 1149 8b3d
00000070: aae0 90bd 54bb edbc bfef 883e 470b 093d
00000080: e390 f9bb 34fe ae3e c20e 72bd 9c48 9abe
00000090: 62c3 2bbd 67d4 e4bd 021e 68be 7d2e f3bd
000000a0: c88d 08be 4993 84be 2b61 23be bf62 81be
000000b0: 69e6 86be 086f aebe a313 02be 02f9 c6bd
000000c0: b30c 11be a04e 01be 40a3 90bc facb 843e
000000d0: 8959 523d 2bf4 7dbc e4f8 afbd 109b d5be
000000e0: b298 203e e276 8ebe 8906 e8bd e2b4 c73c
000000f0: acab bbbe 5549 1eba dfba 2fbe 5433 4fbe
00000100: 30ca 1ebe 8489 6ebe a3a3 983e a392 06be
00000110: 5de4 23be 0a04 0fbe 0a70 ae3e 150a a23c
00000120: fb4f d0bc d8df b6bd d0b1 1ebe 3663 d43b
00000130: 8788 73be 1d73 a33e 6e7f 543d 4423 82be
00000140: 7cbc aebd 4c35 2dbd 31cb 45be 65bc 3fbe
00000150: b798 1ebe 36c8 78be c401 aebd 5d79 64bd
00000160: 4a48 b23d b91e 3bbd ff04 d3bd 58d1 d6bd
00000170: 6c4d 59be d91f 96bd 19fa 783e 0f67 4e3e
00000180: a234 55bd a212 cabd 5485 413b b907 05be
00000190: c341 14be d455 63bd 1816 b5be 5813 89be
000001a0: 561b 98be e1fe 1ebc a805 a9be fc88 22bd
000001b0: eb30 cdbd c78f cabc 7e17 4bbe d9eb 9cbe
000001c0: 7b59 133e a0ee 07bd 1d66 b4bd aee1 b83e
000001d0: ef6a 05bb 5e35 783d 2800 3ebe cc46 29be
000001e0: 8548 85bd 785c ab3e adef 82be 3179 8bbe
000001f0: 9b28 3cbe 5cf9 1dbe 5853 88bc 5e90 8cbe
00000200: 2dbb 5cbe d52d 863e 752f b93d 0b2c 31bd
00000210: c4d8 a3bd 1e1e 34bd 3c4e 37be 59d1 5bbe
00000220: fdfb 47bd 452f 7abe 4e78 c9bd 4696 7cbe
00000230: edf7 dabd 7fd3 0ebe 22db c6be 4ff5 06be
00000240: 1d13 81be 3e49 66be 2fcf 3c3e 6033 16be
00000250: 490a c6bb bd91 d1bd 8d26 e3bd dcb2 9cbe
00000260: 33e3 39bd d953 c1be 2613 e33e 26e7 2fbe
00000270: fd92 14bc 850d 233e 58a2 35be 3390 95be
00000280: 5a6e 75be 3c75 7cbe 4ece aabe 0e26 bdbe
00000290: 2b16 edbb 673c 84be 72fa 0abd f4cc 0abb
000002a0: b9ba 92bd c9fd 71be 5546 8d3e a447 01be
000002b0: 18f4 75be 1ef1 823e 7db1 21bc a0f9 a6be
000002c0: bc0b d5bd 9464 a0be 4497 253e 5030 a63d
000002d0: 80b9 adbe 7429 8cbd fccb 1e3e c89a bfbe
000002e0: 7f05 9e3d 30d5 79be 685f edbc 788f 6f3e
000002f0: a479 82be 9633 a8be 2cf8 d9bd a104 87be
00000300: be9e d6bd d0de 8d3c 057f bfba 4e06 40be
00000310: 401b d5bc c25c 5abe ffc7 c23e 88c9 37bd
00000320: 231d 7dbe 28e3 76be 88fa 4cbd 8c1c 02be
00000330: 4b93 e43e f24f 34bd b196 9ebe 9ef7 c6bc
00000340: 8b5b d8bd 4356 abbb 0711 56bd 43be edbd
00000350: 3045 a53e 9073 9dbc 9f3e b0ba 211e 40bc
00000360: e21b b13e bf47 0abe d557 6fbe 5079 4abe
00000370: 5093 5c3b 35da 30bd 70c9 bbbd a38c 22be
00000380: d613 91be a087 e9bd 4a4e 33be 809b c43c
00000390: eca0 72bd 2490 d73e 5e80 a0be fe69 d4bb
000003a0: ebdd 11be 752e a43c 240a 00bd 39d1 acbe
000003b0: a785 02be a538 cdbd 2179 30be 61eb b7be
000003c0: d620 63bd 5819 93be a771 10be b4b1 48be
000003d0: 88b4 14be 09a9 4bbe 863c f63a 179d a7be
000003e0: 39f7 993e eec8 86bc 3d9d 023f 4571 4bbd
000003f0: e00f 56be db71 3ebe 3483 a8be 012f a9bd
-0.013706003 0.063478224 -0.14087565 -0.09690066 -0.052209187 -0.18336536 -0.2830902 -0.33277723
-0.08250392 0.38006854 -0.34247273 -0.07434012 -0.022892864 -0.09938386 0.006406765 -0.27403578
-0.22137265 0.15218276 0.24078289 -0.123908766 -0.04950878 -0.082848474 -0.35437322 -0.035533782
-0.25846994 -0.026903242 -0.20019953 0.06801046 -0.07074101 -0.02901999 0.26745412 0.03345802
-0.007616149 0.34178317 -0.059096105 -0.30133522 -0.04193438 -0.11173325 -0.22667697 -0.11874101
-0.13335335 -0.2589362 -0.15955035 -0.2527065 -0.26347664 -0.34069085 -0.12702803 -0.09715463
-0.14165 -0.1262765 -0.017655969 0.25936872 0.05135492 -0.015500109 -0.08592394 -0.41719866
0.15683249 -0.27825075 -0.113293715 0.024378244 -0.36654413 -0.0006038149 -0.1716113 -0.20234424
-0.15506816 -0.23294646 0.29812345 -0.13141875 -0.16005082 -0.13966385 0.34069854 0.019780198
-0.025428763 -0.089294136 -0.15497518 0.0064815534 -0.2378255 0.31923762 0.05187934 -0.2541753
-0.08532044 -0.042287156 -0.19315793 -0.1872421 -0.15487944 -0.24295124 -0.084964305 -0.055779804
0.08705194 -0.045683596 -0.10303687 -0.10489148 -0.2122094 -0.07330293 0.24314155 0.20156501
-0.052052148 -0.09866835 0.0029528933 -0.12991227 -0.14478211 -0.055501774 -0.3536842 -0.2677257
-0.29708356 -0.009704323 -0.33012128 -0.03968142 -0.10019096 -0.024726762 -0.1983318 -0.30648687
0.14389603 -0.033186555 -0.08808539 0.3610968 -0.0020357927 0.06059777 -0.18554747 -0.16530913
-0.06507973 0.33468986 -0.25573483 -0.272409 -0.18374865 -0.15427154 -0.016641304 -0.27453893
-0.21555777 0.26206842 0.09042255 -0.043254893 -0.08000329 -0.043974034 -0.17900938 -0.21466579
-0.0488243 -0.24432094 -0.098373994 -0.246667 -0.10691819 -0.13947867 -0.3883906 -0.13179515
-0.25209895 -0.22488877 0.1843841 -0.14668036 -0.0060437066 -0.102328755 -0.11091337 -0.3060521
-0.04538269 -0.37759283 0.44350547 -0.1717802 -0.009068248 0.15923126 -0.1773771 -0.29211578
-0.23967877 -0.24654096 -0.33360523 -0.36943096 -0.0072353086 -0.25827333 -0.03393025 -0.002117929
-0.07164521 -0.23631968 0.27592722 -0.12624985 -0.24018896 0.25574583 -0.009868977 -0.32612324
-0.10402629 -0.31326735 0.16170985 0.08114684 -0.33930588 -0.06843844 0.15507501 -0.37422776
0.07715892 -0.24397731 -0.028976157 0.23394573 -0.2548343 -0.32851857 -0.10643038 -0.2637072
-0.104794964 0.01731816 -0.0014609998 -0.18752405 -0.02601397 -0.21324447 0.3804321 -0.04486993
-0.24718146 -0.2411009 -0.050043613 -0.12706202 0.44643626 -0.044021554 -0.30974343 -0.024287995
-0.105643354 -0.005228789 -0.052262332 -0.11608555 0.32279348 -0.019220144 -0.0013446397 -0.011725933
0.34591585 -0.13503931 -0.23373349 -0.1977284 0.003365714 -0.04317685 -0.091692805 -0.15873961
-0.28335446 -0.114028215 -0.17510334 0.02399993 -0.0592355 0.42102158 -0.31347936 -0.006482362
-0.14244811 0.020041684 -0.03125967 -0.33753374 -0.12746297 -0.1002057 -0.17233707 -0.35921767
-0.055451237 -0.28730273 -0.14105855 -0.19599038 -0.14521992 -0.198887 0.0018786348 -0.32737038
0.30071428 -0.016453233 0.51021177 -0.04966857 -0.20904493 -0.1859812 -0.329126 -0.082609184

linear2.weight f4 [3, 256]
00000000: 3c27 a83d a2e8 72bd 1faa debb 2f26 0c3e
00000010: 73dc 12bd 4faa 773c c5d2 7f3d 3bf6 0ebd
00000020: 8c74 5e3a 0f20 2cbe 4556 5a3c 95d7 bebd
00000030: af8f 5b3e 654a d3bb f075 c83d deb0 133d
00000040: 8534 783c 2ba4 ffbd 9d85 b9bd ac75 fbbd
00000050: 706f 9a3d f0f1 a5bc fafd cfbc bdec e0bb
00000060: 15ec fe3c 641e 6bbd 1bab 673d ba54 793d
00000070: dc06 bfbd 45e5 bf3d e2e3 85be 736f 33bd
00000080: 1c1b 533b 800f 3ebe 471e fe3d 94d5 7e3d
00000090: 9067 263e d00c 2c3c da15 9fbd a072 b3bd
000000a0: 095d ba3c 9b58 73be 94ce 7bbc 008a b13a
000000b0: fb2a 0bbd 4388 65bd 8d34 13bd 52c8 d13c
000000c0: 5e28 3b3c d0ac 223e 9da3 0d3c b7b9 acbd
000000d0: ad34 81bd ad59 103e ee16 413d c691 f63c
000000e0: 97fb 33be b6fe d83d cc21 bcbc 3e83 ebbb
000000f0: 1fb6 2bbc a94b 0c3c f9b7 37bd 3271 7b3d
00000100: 98df c93e 6a4d 5bbd 12e5 39be de0c e93c
00000110: 519d e5bc dad2 733e aec8 3dbe 1f42 803e
00000120: 3e2e 0f3d f80d 763e 54c0 b5bc 9636 8f3e
00000130: 404c 843b 8abb a2be 7eb4 41be 29bd 723d
00000140: 0f0e 0f3e 08f1 c73d 1c16 c3ba 4853 103d
00000150: b5b7 84bc 9a07 b3bd 7b61 833e 081f 86bc
00000160: 5b9f c0bd 7ce1 563e c4f2 f63d 13c4 8d3e
00000170: c6db 4039 e629 2a3d dc32 6bbe bcfa 9cbd
00000180: c9d0 63ba cc2e 373d 9f3a 3c3d 4ba9 463e
00000190: 8417 aa3c 7fd3 833c c9e1 32be 8a7b 2dbe
000001a0: a121 2ebd 9a9f 393e 3971 8ebb 7863 263d
000001b0: c156 acbd 2154 d43c 5a94 08bd d50e e23d
000001c0: aab6 6bbe 38f9 09bc b453 f53d 8189 3dbe
000001d0: 2154 4abd 3328 ecbd c72f 95bc 525f f43c
000001e0: 5b44 973c 31f6 5dbe d78a 833d b885 41bc
000001f0: accd 4bbd 8360 4fbc d57d 58be 82c2 d9bd
00000200: c405 09bc 0535 b5bd b0d2 35be b9fa fa3d
00000210: 6e09 d33c c0c5 9abd c6a3 62b8 783d 613c
00000220: ad7e b53d e0e7 aabe eb6b 933d a0f7 2c3b
00000230: bdb6 c9bd cc67 d03d 7afd 9cbc 817f 48bd
00000240: 10d0 713c b291 fdbb 3cfa 1fbe a528 c73d
00000250: 8034 acbc f727 80bd 6bff bb3c 1128 90bd
00000260: 83b7 e23b c339 a23c 3c44 92be 533a 01bd
00000270: 3058 c03d 13f0 d0bd 6b49 afbc fa78 343c
00000280: 1b20 09bd cf48 943d c733 473c a541 893c
00000290: 2d28 81bb b3d1 433d 0be4 b0bc 35fa 16bc
000002a0: a178 aa3d 3ee0 3e3d a1b7 02be 4ca7 033e
000002b0: dcd5 b1bd b2f2 fbbd b26e 243d a03a 4a3d
000002c0: 3f5d 833e 72f5 213b e376 0cbe 370a 21bb
000002d0: 6889 5b3d ee85 373e 266e d5bc 7f29 2e3c
000002e0: 1248 5fbe eec3 d0bc ab37 4a3e 187e 88bd
000002f0: 4802 b53d 4c19 3e3c dd33 6bbe 744e a43c
00000300: 43f4 90be 63f3 60bd 7a8c d9bc 2478 61bd
00000310: 4efa 5c3e 5e7d 193d 264e c5bd 7f2c 173e
00000320: f934 33bd 3a2f f5bc e065 25bc e98c d63c
00000330: cec1 93be 17d8 9abe ddb0 d0bc 09e8 6f3e
00000340: a654 cd3d 6ef3 23bc 981c 103d 2ca2 efba
00000350: 7c9a 2bbe 4b4c ad3d 796b 5bbc 80eb 0ebd
00000360: 6bd1 13be bd47 c2bc 083c c2bb 53a0 b1bb
00000370: fdc6 2d3e d7e0 3f3d 5d02 453c 8bef 01be
00000380: 61ff 1e3d 19b3 0a3c 8d00 023c c535 acbd
00000390: bef4 63bc 058c 94be a2b9 0c3d f94c 693e
000003a0: ccde 713b dcc8 c43e 6087 49be 3fbf 0ebc
000003b0: 49ca 7c3c 63a0 29bb cd86 c2bd 3efb 3a3c
000003c0: 5555 b4be 17da 8a3e c749 893a 8008 8f3b
000003d0: 32ee 7c3c 1888 d43b 7a07 663e 5f8c c83c
000003e0: f0f1 22be 72ea b4bc 411d 39be f570 153d
000003f0: 6e89 f43c 8bdd b53b f90f d63b c563 39bc
0.08210608 -0.059303887 -0.0067951824 0.13686441 -0.035854768 0.015116288 0.062456865 -0.034902792
0.0008485995 -0.16809104 0.013326232 -0.09318463 0.2144153 -0.0064480775 0.0978812 0.036057346
0.01514924 -0.124824844 -0.09058688 -0.122783035 0.07540786 -0.020256966 -0.02538966 -0.006864159
0.031118432 -0.05740203 0.056559663 0.060871817 -0.0932748 0.093699016 -0.26150423 -0.043807458
0.0032212203 -0.185606 0.12408119 0.062215403 0.16250443 0.010501102 -0.0776784 -0.08762097
0.02274944 -0.23764269 -0.015369076 0.0013545156 -0.033976536 -0.056038152 -0.03593879 0.025608215
0.0114231985 0.15886235 0.0086449655 -0.0843386 -0.06308875 0.14096709 0.047141008 0.030098807
-0.17576443 0.10595457 -0.022965334 -0.007187276 -0.010480433 0.008562961 -0.044853184 0.06138725
0.394284 -0.053540625 -0.1815379 0.028448518 -0.028029116 0.23810902 -0.18533584 0.25050446
0.03495621 0.24028766 -0.022186436 0.27971333 0.00403741 -0.31783706 -0.18916509 0.05926243
0.13970207 0.0976277 -0.0014883908 0.035235673 -0.01620088 -0.08741684 0.2566031 -0.016372219
-0.09405395 0.20984453 0.120580226 0.27688655 0.00018392419 0.041543864 -0.2296862 -0.07665011
-0.0008690474 0.044722363 0.045954343 0.19400518 0.020763166 0.01609206 -0.17468943 -0.16941658
-0.04251254 0.1812729 -0.0043469933 0.040622205 -0.084149845 0.025919022 -0.033344604 0.11037985
-0.230189 -0.008421235 0.11978856 -0.18509485 -0.049396638 -0.11531105 -0.018211259 0.029830609
0.018465212 -0.21675946 0.06422966 -0.011811666 -0.04975669 -0.0126572875 -0.21141751 -0.106328025
-0.008363191 -0.08848003 -0.17756152 0.12254853 0.025761332 -0.07557249 -5.4035125e-05 0.013747565
0.08862052 -0.33380032 0.07198318 0.0026392713 -0.09849308 0.10176048 -0.019163836 -0.048949722
0.014759079 -0.0077383155 -0.156228 0.09724549 -0.021021128 -0.06257623 0.022948941 -0.07038892
0.006918849 0.019802934 -0.28567684 -0.031549763 0.093918204 -0.102020405 -0.021397313 0.011015171
-0.033477884 0.0724045 0.012158341 0.016754935 -0.003941557 0.047807407 -0.021593114 -0.009214927
0.083237894 0.046600573 -0.12765361 0.12856787 -0.086833686 -0.1230215 0.04014463 0.049372315
0.2565708 0.0024712947 -0.13717227 -0.002457274 0.053597838 0.17922184 -0.0260535 0.010630011
-0.21804836 -0.025484052 0.19747798 -0.066646755 0.08838326 0.011602711 -0.22969003 0.02005694
-0.28311357 -0.05491961 -0.026556242 -0.055046216 0.21579859 0.037473075 -0.09634046 0.14763068
-0.04375169 -0.029929746 -0.01009509 0.026190238 -0.288588 -0.30242988 -0.02547496 0.23428358
0.10025911 -0.010006769 0.03518352 -0.0018282584 -0.1675815 0.08461817 -0.013392323 -0.03489256
-0.14435355 -0.023715848 -0.0059275664 -0.0054207235 0.1697044 0.046845283 0.012024489 -0.12689035
0.038817767 0.008465552 0.007934702 -0.08408693 -0.013913332 -0.29013076 0.03435672 0.22783269
0.003690648 0.38434494 -0.19680548 -0.008712589 0.015429088 -0.0025882951 -0.094983675 0.01141244
-0.35221353 0.27119514 0.0010474258 0.004365027 0.01543765 0.00648595 0.2246379 0.024480997
-0.15912604 -0.022084448 -0.18077566 0.036484677 0.029850688 0.0055500916 0.006532666 -0.011315291

linear2.bias f4 [3]
00000000: fbb1 c1bd c71a d43a cc1e 35bd
-0.09457775 0.0016182297 -0.044218823
