shooter_game/TRAINED_MODEL/model.pt (torch, 17811 bytes, 4 tensors)

linear1.weight f4 [256, 12]
0	0x3e17d3d9	0.14826907
1	0x3e565897	0.20932232
2	0x3c730f26	0.014835155
3	0x3e399ee0	0.18127012
4	0xbe8a4ddd	-0.2701253
5	0xbe9d9411	-0.30777028
6	0xbe54b79f	-0.20773171
7	0xbd0c9b0f	-0.034327563
8	0xbe38b7a7	-0.18038808
9	0xbe3a4886	-0.18191728
10	0xbd16fa88	-0.03686002
11	0x3e2eae12	0.1705859
12	0xbd83cb9d	-0.064353205
13	0x3d861f1c	0.065489024
14	0xbc5b7a7d	-0.013395903
15	0x3e905f83	0.2819787
16	0xbdbd6ed4	-0.092496544
17	0x3da6c6e5	0.08143405
18	0x3de5c00d	0.112182714
19	0xbe0562d7	-0.13025986
20	0xbdb8fbbb	-0.09032389
21	0xbdf987c8	-0.12184101
22	0x3e1ebd00	0.15501785
23	0xbc0c4360	-0.008560985
24	0x3e151cb8	0.14561737
25	0x3d671c7e	0.056423657
26	0xbe33cc13	-0.17558317
27	0xbdee0e59	-0.1162383
28	0x3e501adc	0.20322746
29	0xbe0f99c9	-0.14023508
30	0x3e3cb21d	0.1842732
31	0x3d5b700a	0.053573646
32	0x3e10beb1	0.14135243
33	0x3dc3f47f	0.09568118
34	0x3e6adb1a	0.22935143
35	0xbd6b5d1c	-0.057461843
36	0xbd9a67f1	-0.075393565
37	0xbe7e5ccb	-0.24840085
38	0x3e2dea0a	0.1698381
39	0xbe8112a6	-0.2520954
40	0xbd9ee160	-0.077578306
41	0x3e41cb7a	0.18925276
42	0x3d0c82db	0.03430448
43	0x3e23ca2d	0.15995093
44	0xbd5bb344	-0.053637758
45	0x3e3e92f6	0.18610749
46	0x3d48756b	0.048940104
47	0x3e7c09a4	0.24613053
48	0xbe9339a7	-0.28754923
49	0x3e2351af	0.15949129
50	0xbcce9666	-0.0252182
51	0x3e6cda0e	0.23130056
52	0x3d96abb1	0.07356966
53	0xbe875a8a	-0.26436263
54	0x3e15367c	0.14571565
55	0x3de16b59	0.11006803
56	0xbe87e4eb	-0.26541838
57	0xbd3c3c48	-0.045955926
58	0xbe500280	-0.20313454
59	0x3e91c0e0	0.28467464
60	0xbe59caca	-0.21268764
61	0xbe3d5640	-0.18489933
62	0x3e87d2d8	0.2652805
63	0xbd191a78	-0.03737876
64	0x3e11c4ca	0.14235225
65	0xbe7b7bdc	-0.24558967
66	0xbe0148fe	-0.126255
67	0xbe04c100	-0.12964249
68	0xbe20f1f8	-0.15717304
69	0xbe87d08c	-0.26526296
70	0xbc76a120	-0.015053064
71	0x3e6bd9b8	0.23032272
72	0xbd978fd0	-0.07400477
73	0xbdf930ff	-0.121675484
74	0x3e70e903	0.23526387
75	0x3e8c2626	0.27372855
76	0x3e21ba45	0.15793712
77	0x3e29095f	0.16507481
78	0xbe8d0e74	-0.2755009
79	0xbe1b333b	-0.15156262
80	0xbe318828	-0.17337096
81	0xbda9dfd0	-0.08294642
82	0x3df1cc1d	0.1180651
83	0x3e26293e	0.1622667
84	0xbe19ad96	-0.15007624
85	0xbd421170	-0.04737991
86	0x3de3d3cb	0.11124381
87	0xbe0494a2	-0.12947324
88	0xbda99227	-0.082798295
89	0x3e0d421e	0.13794753
90	0xbd2e0209	-0.04248241
91	0x3df601d6	0.12012069
92	0x3e714455	0.23561223
93	0x3e83e207	0.25758383
94	0x3c53762c	0.012906592
95	0xbe207596	-0.15669855
96	0x3d22d12f	0.039750274
97	0xbc34ea2e	-0.011042161
98	0xbd535f00	-0.05160427
99	0x3e2e5b25	0.17026956
100	0x3c0d7f50	0.008636311
101	0x3e342961	0.1759391
102	0xbe62dde0	-0.22154951
103	0xbe57e0fe	-0.21081921
104	0x3db422d7	0.08795708
105	0xbb9ffa97	-0.0048821676
106	0x3db4ab28	0.08821708
107	0x3db31540	0.087442875
108	0xbe24e926	-0.16104564
109	0xbe3d553a	-0.18489543
110	0x3e6f7536	0.23384556
111	0xbda8cf2d	-0.08242641
112	0x3e8d385d	0.27582064
113	0xbdd1db11	-0.10246862
114	0x3e378f31	0.17925717
115	0x3d69ef9d	0.05711328
116	0xbe30d25c	-0.17267746
117	0x3e0963a8	0.13416922
118	0x3df82117	0.121156864
119	0x3cad6e60	0.021170795
120	0xbe8e592b	-0.27802405
121	0xbe0b6cb3	-0.13615684
122	0x3e4a663d	0.19765563
123	0x3d81767c	0.06321427
124	0xbda0c67e	-0.078503594
125	0x3ca1cdb3	0.019751405
126	0x3d343f51	0.044005696
127	0x3e084aeb	0.13309829
128	0xbd9d40e3	-0.07678392
129	0x3e81d42c	0.25357187
130	0x3e1b2d87	0.15154086
131	0xbe878c93	-0.26474437
132	0xbe03f067	-0.12884675
133	0x3e2c18e9	0.16806377
134	0x3dc0d6ec	0.09415993
135	0x3e2a9300	0.16657639
136	0xbe092cc8	-0.13395989
137	0x3e8c24a3	0.27371702
138	0x3e819fd5	0.25317255
139	0xbe012169	-0.12610401
140	0x3e732069	0.23742832
141	0xbe074e00	-0.13213348
142	0x3cd942ed	0.02652117
143	0xbe8a4c54	-0.2701136
144	0x3dd41247	0.103550486
145	0xbe94cbe9	-0.2906182
146	0x3d0e4b11	0.034739558
147	0x3d009f69	0.031402025
148	0x3e345d40	0.17613697
149	0x3e619d4f	0.22032665
150	0x3e700ebe	0.23443124
151	0x3e22fb37	0.15916143
152	0x3e80b04d	0.25134507
153	0x3e983ec0	0.29735374
154	0x3d11eda0	0.035627007
155	0xbd2d5648	-0.042318612
156	0xbe920ef2	-0.28527027
157	0x3da836ef	0.08213603
158	0x3dc3afc6	0.095550105
159	0x3e42d09d	0.19024892
160	0x3e123808	0.14279187
161	0x3da38294	0.0798389
162	0x3d77c0ea	0.06048671
163	0x3deb2350	0.11481345
164	0xbe35c3dc	-0.17750496
165	0x3e12c8bf	0.14334391
166	0x3d7fa465	0.06241264
167	0x3dde6c20	0.10860467
168	0xbd626979	-0.055276368
169	0x3dec3d80	0.11535168
170	0xbe04c61f	-0.12966202
171	0x3e3d4061	0.1848159
172	0xbe3b2e67	-0.1827942
173	0x3e610bf7	0.2197722
174	0x3e4da13c	0.20081037
175	0xbdb988b5	-0.09059278
176	0x3e90b17f	0.2826042
177	0xbe957239	-0.29188707
178	0x3e6f1539	0.2334794
179	0xbcfab120	-0.030602038
180	0xbdf6be4a	-0.120480135
181	0x3df4903e	0.119415745
182	0xbe9d35b0	-0.30705023
183	0x3cd1f3b1	0.025628896
184	0x3e9d4ff4	0.30725062
185	0x3e8398e2	0.25702578
186	0x3e33066e	0.17482921
187	0xbdb3f430	-0.087868094
188	0xbe0588d9	-0.13040484
189	0x3d105548	0.03523758
190	0x3c85cfe7	0.016334487
191	0xbd8f6d0a	-0.070032194
192	0xbe50b4ce	-0.20381472
193	0x3e62580a	0.22103897
194	0x3e46e199	0.19421996
195	0xbe1649e8	-0.1467663
196	0x3cc7bc13	0.024381673
197	0x3e3b6bc9	0.18302836
198	0x3e63794d	0.22214241
199	0x3de194c1	0.11014701
200	0xbd876583	-0.06611159
201	0x3e4fc1cc	0.20288771
202	0x3d7cbc92	0.061703272
203	0x3e2e6598	0.17030942
204	0x3ca61d65	0.020277688
205	0xbdcaa58c	-0.09894857
206	0x3e6b8afa	0.23002234
207	0x3da5ed2c	0.081018776
208	0x3d37a711	0.04483706
209	0x3cb8341a	0.022485781
210	0xbe1e7740	-0.15475178
211	0x3e334c68	0.17509615
212	0x3db75514	0.08951774
213	0x3d803c54	0.06261507
214	0x3d2ace40	0.0417006
215	0xbe0d9544	-0.13826472
216	0x3cb1ab74	0.0216882
217	0x3d097863	0.033562075
218	0xbe921056	-0.28528088
219	0x3d946c8c	0.07247266
220	0x3db90855	0.09034792
221	0xbe69e8a9	-0.22842659
222	0xbd3a6021	-0.045501832
223	0x3e54bb5c	0.20774597
224	0x3e85b432	0.2611404
225	0x3e945feb	0.2897943
226	0x3bf79f40	0.007556826
227	0xbe5d5887	-0.21615802
228	0x3cda70ab	0.026665052
229	0xbdedc389	-0.11609561
230	0xbe728862	-0.23684838
231	0xbe5c766f	-0.21529554
232	0xbd8caed8	-0.06869286
233	0x3e89769a	0.26848298
234	0xbe81e93d	-0.2537326
235	0x3e7df324	0.24799782
236	0xbd6267d1	-0.05527479
237	0xbe0516bb	-0.12996952
238	0xbe715ced	-0.23570605
239	0xbe932ed1	-0.28746656
240	0x3e1659c7	0.14682685
241	0x3d770821	0.060310487
242	0x3e20b43b	0.15693752
243	0x3d05afe0	0.03263843
244	0x3dd6b431	0.104835875
245	0x3dec50cb	0.115388475
246	0x3e8ef637	0.27922222
247	0xbdb454e0	-0.08805251
248	0x3dfb17d9	0.12260408
249	0xbe0021b1	-0.12512852
250	0x3d3c1ce4	0.04592599
251	0xbe0d3440	-0.13789463
252	0x3d2174df	0.039418098
253	0xbe06e81c	-0.1317448
254	0xbe5e2c7d	-0.21696658
255	0xbe878db5	-0.264753

linear1.bias f4 [256]
0	0x3e4df4de	0.2011294
1	0x3e8cc6a4	0.274953
2	0x3e497931	0.19675137
3	0xbd29e1b6	-0.04147502
4	0x3dc700d0	0.09716952
5	0xbe2b3e4a	-0.1672298
6	0x3e113636	0.14180836
7	0x3d26e063	0.040741336
8	0x3e55015c	0.208013
9	0x3e3cc648	0.18435013
10	0x3e3c7cad	0.18406935
11	0x3e4028a0	0.18765497
12	0xbe83777e	-0.25677103
13	0x3d7523cc	0.05984859
14	0x3d66ac24	0.05631651
15	0x3e3e172b	0.18563525
16	0xbe419e51	-0.18908049
17	0xbe72e737	-0.23721014
18	0xbd631a2a	-0.055444874
19	0xbd232e4d	-0.039839078
20	0xbdd3978a	-0.10331638
21	0x3bde94f9	0.0067926613
22	0xbe6286cd	-0.22121735
23	0xbd967f31	-0.073484786
24	0x3d2d9000	0.042373657
25	0xbdbabf67	-0.09118538
26	0x3d3ab27d	0.045580376
27	0xbe9c6d6c	-0.30552232
28	0xbe96c3ab	-0.29446158
29	0x3e462f6d	0.19354029
30	0xbe1e5183	-0.15460782
31	0xbcb3d134	-0.021950342
32	0xbdb0b816	-0.086288616
33	0xbd99d1b2	-0.07510699
34	0x3e1ea429	0.1549231
35	0x3e44bdc3	0.19213013
36	0x3e4e45cd	0.20143814
37	0xbe899e36	-0.26878518
38	0xbe0110d5	-0.12604077
39	0xbdd28fcf	-0.102813356
40	0x3e5d0e22	0.21587422
41	0xbd861bac	-0.06548247
42	0x3d647271	0.055773202
43	0x3e7e8c89	0.24858297
44	0x3c65ac34	0.014018107
45	0xbe6075cb	-0.21919934
46	0xbe8647ef	-0.26226756
47	0x3dc500a5	0.096192636
48	0x3e858f5d	0.2608594
49	0x3e87d8fe	0.2653274
50	0xbe83f681	-0.25774005
51	0xbe8dd74c	-0.2770332
52	0x3e6536bd	0.22384162
53	0xbe118189	-0.1420957
54	0x3e16bfd2	0.14721611
55	0x3c1bcca6	0.009509241
56	0xbe6565fd	-0.22402187
57	0xbe22fee0	-0.1591754
58	0xbe71d32a	-0.23615709
59	0xbddd61ac	-0.10809645
60	0xbe6ed9dd	-0.23325296
61	0xbe666bd7	-0.22502075
62	0x3da4cbaa	0.08046658
63	0x3b972487	0.0046125087
64	0xbe47e09f	-0.1951928
65	0x3e633f2a	0.22192064
66	0xbea994ce	-0.3312134
67	0xbdf9375a	-0.121687606
68	0x3de230e4	0.110444814
69	0xbd01883b	-0.03162406
70	0x3e729f69	0.23693623
71	0xbe592ced	-0.21208544
72	0xbe51a9c3	-0.20474915
73	0x3dc00797	0.09376448
74	0xbe29bed4	-0.16576701
75	0x3e004500	0.12526321
76	0x3e8256d9	0.25456885
77	0xbe0621c8	-0.13098824
78	0x3ddc2827	0.10749846
79	0xbdc34c6d	-0.095360614
80	0xbe11624e	-0.14197657
81	0xbe2f5a7e	-0.17124364
82	0x3e4f3b92	0.20237568
83	0xbe0d1de4	-0.13780934
84	0x3ccbccac	0.024877869
85	0xbdca1799	-0.09867782
86	0x3e2ab97e	0.16672322
87	0xbe7ae8ca	-0.24502864
88	0x3d69c0c7	0.057068612
89	0xbe30c342	-0.17261985
90	0xbdfb26de	-0.12263273
91	0x3e5f9382	0.21833614
92	0x3dbf0b33	0.09328308
93	0xbe0c381f	-0.13693283
94	0xbe802a13	-0.250321
95	0xbd8a4b6d	-0.067526676
96	0xbddec99e	-0.10878299
97	0xbdfa694a	-0.122271135
98	0x3e4e1ab4	0.20127374
99	0xbdbade78	-0.09124464
100	0x3e87e709	0.26543453
101	0x3c85e1c3	0.016343003
102	0xbe268d5b	-0.1626486
103	0x3e8d33bf	0.27578542
104	0x3e28271d	0.1642117
105	0xbe664dc1	-0.22490598
106	0xbe2f2120	-0.1710248
107	0xbcfc281d	-0.030780846
108	0xbe20e395	-0.15711816
109	0x3c50de42	0.012748303
110	0x3e672fce	0.2257683
111	0x3e5fa87e	0.21841618
112	0x3d665a90	0.05623871
113	0x3e5587b2	0.20852545
114	0xbe4c18a4	-0.19931275
115	0xbceadede	-0.028670724
116	0x3e439627	0.19100247
117	0x3e2d3d66	0.16917953
118	0x3e2bafef	0.16766332
119	0x3e47feda	0.19530812
120	0xbca92614	-0.02064804
121	0x3e92471b	0.28569874
122	0x3d07af2e	0.03312605
123	0xbe702fe8	-0.23455775
124	0x3e36212f	0.17786096
125	0xbe7161e6	-0.23572502
126	0xbe6369fa	-0.22208396
127	0x3e06f3a9	0.13178886
128	0x3dacfb9e	0.0844643
129	0xbe3cba23	-0.1843038
130	0x3e175fca	0.14782634
131	0xbe3fe9c3	-0.18741517
132	0xbe2d627d	-0.16932102
133	0xbdb1b65d	-0.08677361
134	0xbe38694b	-0.18008916
135	0x3e8905ff	0.26762387
136	0xbdf7d1da	-0.12100573
137	0xbe2c3649	-0.16817583
138	0x3da8a9e9	0.08235533
139	0x3db54f81	0.08853055
140	0x3e6ccbcc	0.23124617
141	0x3e70a319	0.23499717
142	0xbda961f2	-0.08270635
143	0xbe060e50	-0.13091397
144	0x3e149689	0.1451055
145	0xbe779013	-0.24176054
146	0xbe980255	-0.2968928
147	0x3e74efda	0.23919621
148	0xbd8d73e3	-0.06906869
149	0x3e33a7b2	0.1754444
150	0x3dc7fdb6	0.097651884
151	0xbe2294d6	-0.15877089
152	0xbe82a854	-0.2551905
153	0xbbbadcf6	-0.00570261
154	0x3e340052	0.17578247
155	0xbe93965c	-0.28825653
156	0xbe894fb1	-0.26818612
157	0x3d2080d7	0.03918537
158	0xbdffc108	-0.1248799
159	0xbe3657b4	-0.17806894
160	0xbd96045e	-0.07325052
161	0x3deb57e4	0.11491373
162	0xbd9b62ad	-0.0758718
163	0xbe4944b9	-0.19655122
164	0xbe0d164d	-0.13778038
165	0x3d1038ea	0.035210527
166	0xbe3966cc	-0.1810562
167	0xbd432018	-0.04763803
168	0xbdd3ca05	-0.103412665
169	0x3d51a062	0.051178344
170	0x3e874415	0.2641913
171	0x3e38b85d	0.18039079
172	0x3e6ff4c3	0.23433213
173	0xbb3a5f7d	-0.0028438263
174	0xbe382d77	-0.17986093
175	0xbca988c5	-0.0206951
176	0x3e502084	0.20324904
177	0x3d6ef815	0.05834206
178	0xbcd1875f	-0.025577245
179	0xbdc04349	-0.093878336
180	0x3e74fb3e	0.23923966
181	0xbd79ddf2	-0.06100268
182	0xbe452184	-0.19251066
183	0x3c9f241d	0.0194264
184	0xbd2bc614	-0.04193695
185	0x3dfa16f8	0.12211412
186	0x3db7837c	0.089606255
187	0x3e860d3b	0.2618197
188	0x3e04b842	0.12960914
189	0x3e7aa01f	0.24475144
190	0x3ddc7001	0.107635505
191	0x3de4c2aa	0.11169942
192	0xbde0e74c	-0.109816164
193	0x3e743c16	0.23851046
194	0xbe867fa7	-0.26269266
195	0x3d8aa54b	0.067698084
196	0x3c2a568b	0.01039661
197	0x3e66d877	0.22543512
198	0x3d44e574	0.048070386
199	0x3df152d3	0.117833756
200	0xbcd83472	-0.026392195
201	0x3ddcf13a	0.10788198
202	0x3d54843d	0.051883925
203	0x3c9814aa	0.01856454
204	0x3e47eeb5	0.19524653
205	0x3e1add21	0.15123416
206	0x3e7ce040	0.2469492
207	0x3e706b97	0.23478542
208	0x3d879483	0.06620123
209	0x3d50e336	0.050997935
210	0x3e2a522b	0.16632907
211	0x3cbe24fd	0.023210997
212	0x3b8f7e26	0.0043790517
213	0x3de49b84	0.11162475
214	0xbdc54ae4	-0.09633425
215	0xbd8f9222	-0.070102945
216	0xbe83c4b8	-0.25736022
217	0xbdb32453	-0.08747163
218	0x3dddcde2	0.10830285
219	0x3e3d099b	0.18460695
220	0xbe90252a	-0.28153354
221	0xbda52b30	-0.08064878
222	0xbe90ee2f	-0.2830672
223	0x3e81e2fb	0.25368485
224	0x3e3641f2	0.17798594
225	0x3e185fd4	0.14880306
226	0xbe1cc9b7	-0.15311323
227	0xbd9b1d1a	-0.0757391
228	0xbe7cea94	-0.2469886
229	0x3bdd5aac	0.0067551937
230	0x3cd58ad9	0.026067184
231	0xbda3e35f	-0.08002352
232	0x3e3d23d2	0.18470696
233	0xbdec11e8	-0.11526853
234	0xbc1d1562	-0.009587618
235	0xbe73206c	-0.23742837
236	0x3e73584d	0.23764153
237	0xbe8c7837	-0.27435467
238	0x3e81c6ea	0.25347072
239	0xbe88dba5	-0.26730075
240	0xbd33205a	-0.043732025
241	0xbea31508	-0.31851983
242	0xbb2fffc2	-0.0026855324
243	0xbc32c43e	-0.010911046
244	0x3e68d2c9	0.22736658
245	0x3d82dbc3	0.063895725
246	0xbdaf167c	-0.085492104
247	0xbe647d35	-0.22313388
248	0x3d9ce388	0.07660586
249	0x3e05f394	0.13081199
250	0x3e6f8fb8	0.23394668
251	0xbe1b7cea	-0.1518437
252	0xbdc3d089	-0.09561259
253	0xbe858f65	-0.26085964
254	0x3e7202d5	0.23633893
255	0x3e81f4d6	0.25382107

linear2.weight f4 [3, 256]
0	0xbd43b08f	-0.0477758
1	0x3d23623e	0.039888613
2	0xbd399014	-0.04530342
3	0xbbd3651a	-0.006451261
4	0xbd54527b	-0.051836472
5	0xbc946ad8	-0.018117353
6	0x3d05ac0b	0.032634776
7	0x3b4a0581	0.0030826034
8	0xbd2e35a2	-0.042531617
9	0xbd803a25	-0.0626109
10	0xbd208a5a	-0.039194442
11	0x3ce4e969	0.02794333
12	0xbd2e52bc	-0.04255937
13	0xbd1eb9b3	-0.038751315
14	0x3c806592	0.015673432
15	0xbd4b7949	-0.049676213
16	0xbd66452c	-0.05621831
17	0x3d87d0f9	0.06631655
18	0xbd367683	-0.044546615
19	0xbd3cd481	-0.046101097
20	0x3aa67838	0.0012700623
21	0x3cb98720	0.02264744
22	0xbd599179	-0.05311725
23	0x3cdda594	0.027056493
24	0x3d0a9101	0.033829693
25	0xbcced3b5	-0.025247434
26	0x3d9466b1	0.07246149
27	0xbb284fd4	-0.0025682347
28	0xbbf28094	-0.0074005816
29	0xbcc7ac64	-0.024374194
30	0xbca36524	-0.019945689
31	0x3d85ddde	0.065364584
32	0x3d480874	0.048836187
33	0x3c9fae1a	0.019492198
34	0x3c0e3508	0.008679636
35	0xbda3f9fe	-0.080066666
36	0xbce1f914	-0.02758459
37	0xbd64a96e	-0.055825643
38	0x3d134ab9	0.035959933
39	0x3c0c9a0c	0.0085816495
40	0x3d8884ae	0.06665932
41	0x3b4da436	0.0031378395
42	0x3c1b4296	0.009476325
43	0xbd958454	-0.0730063
44	0xbdd4a393	-0.10382762
45	0x3cb877bf	0.022518037
46	0xbab44135	-0.0013752343
47	0xbce3c6fc	-0.027804844
48	0x3ba0fb7b	0.0049127913
49	0xbc1155d4	-0.008870561
50	0x3cf7af0c	0.030234836
51	0xbcd1ee53	-0.025626337
52	0x3d115ea0	0.035490632
53	0xbd60442b	-0.05475251
54	0x3c9f2043	0.019424563
55	0x3c492955	0.012277921
56	0xbd451f23	-0.048125397
57	0xbd9e6173	-0.07733431
58	0xbc532248	-0.012886591
59	0xbc72b8b8	-0.014814548
60	0xbd78a3d9	-0.060703132
61	0xbd3ba44b	-0.04581098
62	0xbc869c25	-0.016431877
63	0x3c1ae270	0.009453401
64	0x3cb08216	0.021546405
65	0x3c273ef0	0.010207877
66	0xb9e46615	-0.00043563606
67	0xbd0ca108	-0.03433326
68	0xbcb79004	-0.02240754
69	0x3b2c3de1	0.0026282
70	0xbdfa1596	-0.122111484
71	0xbd5b0555	-0.053471882
72	0xbd447338	-0.047961444
73	0xbc6218fd	-0.013799903
74	0xbd917b9b	-0.07103654
75	0x3d4d29b6	0.050088607
76	0x3bf67dd2	0.007522323
77	0x3c4bfd04	0.01245046
78	0x3b176d35	0.0023105864
79	0x3b0be8c0	0.0021348447
80	0x3d7901f7	0.06079289
81	0x3d6c450b	0.057683032
82	0x3cbb69e3	0.02287764
83	0xbd731727	-0.05934825
84	0x3cdbda50	0.026837498
85	0x3c2b7ae9	0.010466316
86	0x3d73adb1	0.059491817
87	0xbcf880ff	-0.030334948
88	0xbdae523f	-0.08511781
89	0x3d783562	0.060597785
90	0x3d03e546	0.032201074
91	0xbb04fcf7	-0.002029238
92	0x3c59954b	0.013280223
93	0x3c2e8d08	0.010653742
94	0xbd9446f9	-0.072400995
95	0xbc5bd7cd	-0.01341815
96	0x3d9c3699	0.07627601
97	0xbcbefd9c	-0.02331429
98	0xbd7adbac	-0.06124465
99	0xbd5ce450	-0.053928673
100	0xbc33ff8f	-0.010986223
101	0xbd66d8f7	-0.056359258
102	0x3cb33483	0.021875625
103	0xbde42f32	-0.11141814
104	0xbcb8fec1	-0.022582414
105	0x3c552dd1	0.013011412
106	0xbb1768e0	-0.0023103282
107	0xbd144b32	-0.036204524
108	0x3d5a96c6	0.053366445
109	0xbde0331f	-0.109472506
110	0xbd272a1e	-0.04081165
111	0x3d1cb23c	0.038255915
112	0xbd3f287f	-0.04666948
113	0xbd640750	-0.055671036
114	0x3c676e18	0.0141253695
115	0xbd78962f	-0.0606901
116	0xbc5d153b	-0.013493831
117	0xbbc3302e	-0.005956671
118	0x3c4c4382	0.012467267
119	0xbbe1d998	-0.0068923943
120	0x3d1f87cd	0.03894787
121	0xbc87326a	-0.016503531
122	0xbd1bb489	-0.03801397
123	0xbb39c961	-0.002834879
124	0x3c6197e7	0.0137691265
125	0xbd36950c	-0.044575736
126	0xbd23fa44	-0.040033594
127	0xbdfd6a2c	-0.12373766
128	0xbc4ec854	-0.012621004
129	0x3c976be9	0.018484073
130	0xbd5a1fa9	-0.05325285
131	0x3c839bb8	0.016065463
132	0x3d6928d4	0.056923702
133	0x3d0f6a84	0.03501369
134	0x3d0f16aa	0.034933724
135	0x3db615f4	0.08890906
136	0x3c7bd470	0.015370473
137	0x3d701dae	0.058622055
138	0x3d747b97	0.059688177
139	0x3d6287d5	0.05530532
140	0x3c6f9f80	0.01462543
141	0xbd92c710	-0.071668744
142	0xbd243024	-0.040084973
143	0x3cd6de64	0.026229091
144	0xbbba78fe	-0.005690693
145	0xbc8d2c28	-0.01723297
146	0xbd8c98d5	-0.06865088
147	0x3cfed606	0.031107914
148	0xbb9ee958	-0.004849594
149	0xbaabba8f	-0.0013101863
150	0xbd06aa46	-0.03287723
151	0xbd3e728c	-0.04649596
152	0xba817e16	-0.0009879495
153	0xbd230d48	-0.039807588
154	0x3d526a36	0.051370822
155	0x3d12b1fc	0.03581427
156	0xbd4e9629	-0.050436173
157	0xbcb727ed	-0.022357905
158	0xbd37da44	-0.04488589
159	0xbd5fe465	-0.054661173
160	0x3d0cdff3	0.034393262
161	0xbd1429cd	-0.036172677
162	0x3d7ddfcd	0.06198101
163	0x3db31d3d	0.08745811
164	0xbb88ef35	-0.0041789063
165	0xbcc2e558	-0.023791
166	0x3cbe0504	0.023195751
167	0xbd5dbab7	-0.054133143
168	0x3d9b8594	0.075938374
169	0xbb967564	-0.004591631
170	0x3d111faa	0.035430588
171	0x3ce20213	0.02758888
172	0x3dbbece2	0.09176041
173	0x3d0b706a	0.034042753
174	0xbbb4a8ee	-0.005513302
175	0xbc5a5181	-0.013325096
176	0xbe06181e	-0.13095137
177	0x3cafacb2	0.021444652
178	0x3c4d9a5a	0.012549007
179	0x3d962ceb	0.07332786
180	0xbd59f425	-0.05321135
181	0x3c432790	0.011911288
182	0xbd9d866e	-0.07691656
183	0x3c9bf0bd	0.019035691
184	0x3c3c398d	0.011488331
185	0x3c2c6b9b	0.010523702
186	0x3c8a4eff	0.016883371
187	0xbb174770	-0.0023083352
188	0xbdd79903	-0.105272315
189	0xbc407723	-0.011747154
190	0xba77fb1e	-0.00094597216
191	0x3d49a443	0.049228918
192	0x3d4bf274	0.04979177
193	0xbd0cb9f6	-0.034357034
194	0xbc677da8	-0.01412908
195	0xbcbcaf32	-0.023032758
196	0x3cfad597	0.030619426
197	0xbdba1c53	-0.09087434
198	0xbcdea1fd	-0.027176851
199	0xbd452f07	-0.048140552
200	0x3d8905f7	0.06690591
201	0xbba5f538	-0.0050646327
202	0x3d5bf9bc	0.053704962
203	0xbd18751a	-0.03722105
204	0x3c50fb61	0.012755246
205	0x3d085a7a	0.03328941
206	0xbc13fed8	-0.009032927
207	0x3d8fa0ab	0.07013067
208	0x3ced58ec	0.028973065
209	0x3d48aff9	0.048995946
210	0xbcffa681	-0.031207325
211	0xbbd2f98e	-0.0064384406
212	0xbcc01588	-0.023447767
213	0x3c319f0e	0.010841144
214	0x3d1bed4e	0.03806811
215	0xbc14cdc8	-0.009082265
216	0x3d861c40	0.06548357
217	0xbc546f4d	-0.012965989
218	0x3ca91a17	0.020642323
219	0x3d2b6cfe	0.04185199
220	0x3d64225c	0.05569683
221	0xbcb9280c	-0.022602104
222	0xbb7c9760	-0.0038542375
223	0x3d9b3dca	0.07580145
224	0x3cec72b9	0.028863298
225	0xbd9e69f1	-0.077350505
226	0xbbc3ee00	-0.0059792995
227	0xbca44296	-0.020051282
228	0xbd7b655c	-0.06137596
229	0xbde6e7ec	-0.11274704
230	0x3d7db71e	0.061942212
231	0x3d0c74c0	0.03429103
232	0x3d02980e	0.031883292
233	0xbc876c2c	-0.016531073
234	0x3d827add	0.063710906
235	0xbb849d90	-0.004047103
236	0xbc1eca5c	-0.009691801
237	0xbcaba7e3	-0.020954078
238	0xbd0b01a3	-0.033937108
239	0xbc30f540	-0.01080066
240	0x3d3b0002	0.045654304
241	0x3c4c7a95	0.012480398
242	0xbdb4a802	-0.088211074
243	0x3cb4846d	0.022035802
244	0x3d101ba7	0.03518262
245	0xbd15ace4	-0.036541834
246	0xbcb4e667	-0.02208252
247	0xba0a7985	-0.000528239
248	0xbc6b905c	-0.01437768
249	0x3ca35368	0.019937232
250	0xbe2494cf	-0.16072391
251	0x3d841ca7	0.064507775
252	0x3c7345ee	0.0148482155
253	0xbb898360	-0.0041965693
254	0x3d36a65e	0.044592254
255	0x3cab68a4	0.02092392

linear2.bias f4 [3]
0	0x3d85e068	0.06536943
1	0xbd79cc99	-0.060986135
2	0xbd718094	-0.058960512
