shooter_game/TRAINED_MODEL/model.pth (torch, 17811 bytes, 4 tensors)

linear1.weight f4 [256, 12]
-0.25414765 0.09417969 -0.09844349 0.0076252534 -0.19787183 -0.16771421 -0.085419 0.030751199
-0.2553609 0.043023646 -0.25352538 0.034239262 0.13648583 -0.19422589 0.17704968 0.2095539
-0.043426365 -0.10565838 0.15169607 -0.10555725 0.053688936 -0.12251347 -0.35937068 0.022634774
-0.10272442 -0.07037186 -0.2152201 -0.13997135 0.05773639 -0.15686846 0.19678757 0.082456075
-0.17368604 -0.23713204 0.07633671 0.22277403 -0.30619222 -0.10332929 0.014321112 -0.22189459
0.19421035 0.084825724 -0.25290605 -0.37018192 0.30821064 0.18273796 -0.14095825 0.15993798
-0.07341159 0.4707499 -0.4045713 0.1779897 0.25945082 -0.28976363 0.03555801 0.23383568
-0.20117065 -0.004938012 0.038828693 0.07736379 0.12590621 0.34835383 -0.26619077 0.07330409
0.33176365 0.014789613 -0.10317024 -0.020206032 -0.36987862 -0.12951602 -0.1284071 0.19589162
-0.09248975 -0.2868388 0.032825004 -0.18022731 0.22262026 -0.04898197 -0.25197706 -0.23103414
-0.2833237 -0.04623863 -0.2881015 0.1612226 0.17725179 0.00371617 -0.27566049 -0.11936799
0.03217233 -0.16798559 -0.25333905 -0.06663296 -0.311273 -0.2760045 -0.20988363 0.15341839
0.061701268 -0.26067278 -0.21175714 -0.15101245 -0.16661742 0.003982026 0.048952106 -0.024390565
-0.07567048 0.21849804 -0.079943866 -0.2846068 -0.3017064 -0.051251337 0.36089012 -0.19491842
-0.38889784 0.30483037 0.2536448 0.02232948 0.21960403 0.3926526 0.31406724 0.25009942
-0.074479766 -0.027517466 -0.30236402 -0.045649692 -0.15441936 -0.081577875 -0.3024809 -0.006846566
0.060230102 0.1948581 -0.19618148 0.10463351 -0.08463802 -0.2044514 -0.082577765 0.0016825045
-0.15904774 -0.25211972 -0.1679187 -0.21361479 -0.1687111 -0.110456705 -0.19471863 -0.20687336
-0.21714723 0.26243845 -0.2592618 -0.3445204 -0.05855538 -0.21738464 -0.1634851 -0.054212123
0.16480601 -0.1799957 -0.08855348 0.087774426 -0.13109286 -0.1577394 0.030611712 -0.06481405
-0.06593196 -0.0019205911 0.2869437 -0.25461304 -0.2135701 -0.21814013 -0.07250248 0.14058483
-0.28438094 -0.03836702 -0.24192983 -0.3691723 0.114252456 -0.3560448 -0.23000981 0.06013498
0.03513783 0.09313358 0.034677826 -0.23485519 -0.31634018 -0.024536846 0.28907388 -0.07504536
-0.40143585 0.05713916 -0.030103901 0.0036008146 0.23275518 -0.25448996 -0.06502641 -0.12682508
-0.23109953 -0.26796055 -0.016644869 -0.093881406 0.19796683 0.107154325 0.09396359 -0.20889013
-0.07271782 0.07763476 0.14732768 0.16494295 0.26386374 -0.3429884 -0.37680158 0.21480705
-0.17358336 0.16367787 0.097520225 0.033727083 0.14545019 -0.077826925 -0.13676222 0.068412155
0.32723117 0.40706265 -0.3924867 -0.08037237 0.22233574 -0.311486 0.080854416 -0.016261667
0.3019507 -0.10553453 -0.27182123 0.15942812 0.006922341 -0.18792649 -0.2866199 -0.068955824
-0.1951991 -0.015283764 -0.19821873 -0.087279744 -0.28284484 -0.0787084 0.18957533 0.091017276
-0.023271244 -0.33415565 0.2810017 0.27750495 -0.15714496 0.16602807 -0.088144556 0.13221534
-0.026543185 0.17260544 -0.092479244 0.16941369 0.038391612 -0.40613553 -0.39507315 -0.17211264
00000000: a41f 82be 48e1 c03d be9c c9bd 43dd f93b
00000010: ea9e 4abe 46bd 2bbe 28f0 aebd f0e9 fb3c
00000020: aabe 82be 9039 303d 14ce 81be 783e 0c3d
00000030: f1c2 0b3e 27e3 46be 834c 353e 4c95 563e
00000040: d8df 31bd 6c63 d8bd 3756 1b3e 662e d8bd
00000050: eee8 5b3d 58e8 fabd 6fff b7be 906c b93c
00000060: 2e61 d2bd 1f1f 90bd a862 5cbe a654 0fbe
00000070: fe7c 6c3d 20a2 20be ae82 493e bbde a83d
00000080: c1da 31be bed2 72be 6c56 9c3d e01e 643e
00000090: 3ac5 9cbe 4f9e d3bd 19a3 6a3c 5638 63be
000000a0: 14df 463e 1cb9 ad3d e77c 81be 7c88 bdbe
000000b0: c9cd 9d3e a91f 3b3e 5c57 10be c8c6 233e
000000c0: d158 96bd 2206 f13e f823 cfbe ef42 363e
000000d0: bdd6 843e e65b 94be 47a5 113d 9f72 6f3e
000000e0: aeff 4dbe 0ccf a1bb d60a 1f3d e870 9e3d
000000f0: 8fed 003e 6f5b b23e 284a 88be 7420 963d
00000100: eddc a93e 2250 723c eb4a d3bd 1f87 a5bc
00000110: bb60 bdbe d99f 04be 277d 03be d097 483e
00000120: 446b bdbd 89dc 92be 8373 063d 828d 38be
00000130: 91f6 633e 51a1 48bd 2303 81be 3794 6cbe
00000140: ce0f 91be b864 3dbd 0a82 93be 8a17 253e
00000150: 7e81 353e fd8a 733b 5f23 8dbe 3477 f4bd
00000160: 22c7 033d 6a04 2cbe a8b5 81be dd76 88bd
00000170: 2d5f 9fbe 7650 8dbe bceb 56be b619 1d3e
00000180: 78ba 7c3d e776 85be ddd6 58be 02a3 1abe
00000190: c29d 2abe a87b 823b 0182 483d b9ce c7bc
000001a0: 20f9 9abd f3bd 5f3e 9cb9 a3bd fcb7 91be
000001b0: 4379 9abe ecec 51bd 97c6 b83e b298 47be
000001c0: 9e1d c7be ba12 9c3e bbdd 813e 50ec b63c
000001d0: e1df 603e c309 c93e 6ccd a03e 080d 803e
000001e0: d988 98bd 4f6c e1bc 75cf 9abe 2cfb 3abd
000001f0: 1c20 1ebe 4d12 a7bd c7de 9abe 2959 e0bb
00000200: d7b3 763d e288 473e cce3 48be 184a d63d
00000210: b356 adbd b55b 51be 881e a9bd 7c87 dc3a
00000220: 69dd 22be d615 81be e1f2 2bbe d6bd 5abe
00000230: 9ac2 2cbe 2037 e2bd 5264 47be 9cd6 53be
00000240: d85b 5ebe 555e 863e f6bd 84be fa64 b0be
00000250: c4d7 6fbd 149a 5ebe a368 27be 880d 5ebd
00000260: e8c2 283e cb50 38be 875b b5bd 14c3 b33d
00000270: 353d 06be 7086 21be 6ac5 fa3c 3bbd 84bd
00000280: 5607 87bd 58bc fbba 49ea 923e a45c 82be
00000290: 1fb2 5abe 2060 5fbe 2e7c 94bd 78f5 0f3e
000002a0: 619a 91be bd26 1dbd 74bc 77be 2704 bdbe
000002b0: 31fd e93d 814b b6be b187 6bbe 1950 763d
000002c0: afec 0f3d d2bc be3d 560a 0e3d e17d 70be
000002d0: 57f7 a1be 7f01 c9bc 7e01 943e 62b1 99bd
000002e0: 0089 cdbe c00a 6a3d 759c f6bc a5fb 6b3b
000002f0: 6057 6e3e 824c 82be 912c 85bd 6fde 01be
00000300: 5ba5 6cbe 2032 89be d25a 88bc e544 c0bd
00000310: d1b7 4a3e ba73 db3d fc6f c03d 4be7 55be
00000320: 15ed 94bd f9fe 9e3d 11dd 163e cee6 283e
00000330: 2619 873e 2d9c afbe 23ec c0be 61f6 5b3e
00000340: d6bf 31be 2c9b 273e afb8 c73d 6925 0a3d
00000350: e5f0 143e b963 9fbd 650b 0cbe ac1b 8c3d
00000360: d88a a73e 846a d03e 04f4 c8be 459a a4bd
00000370: fbab 633e 187b 9fbe 0097 a53d 3037 85bc
00000380: 4899 9a3e 7d22 d8bd 272c 8bbe 2041 233e
00000390: ced4 e23b cd6f 40be d8bf 92be b638 8dbd
000003a0: 46e2 47be c168 7abc daf9 4abe b9bf b2bd
000003b0: 0ad1 90be df31 a1bd 0920 423e 4467 ba3d
000003c0: 56a3 bebc 7316 abbe 74df 8f3e 2115 8e3e
000003d0: 9cea 20be 4303 2a3e 2285 b4bd 7563 073e
000003e0: 1871 d9bc 7bbf 303e c265 bdbd c87a 2d3e
000003f0: 8640 1d3d fff0 cfbe 0747 cabe 4c3e 30be

linear1.bias f4 [256]
-0.09634365 -0.22290942 -0.055777337 -0.018301336 0.4304957 0.465832 -0.23205857 0.087749474
-0.14542668 0.070421435 -0.19599184 0.05600001 0.27748382 -0.06656118 -0.02867122 -0.19001155
-0.34358466 -0.037090346 0.06608141 0.046416733 -0.12908734 -0.2084997 -0.070190035 -0.09054238
-0.19092572 0.51074475 -0.16228056 -0.29150143 -0.30669934 -0.29133207 0.009486059 -0.25595722
0.31115186 -0.04943729 0.24811321 0.0789786 -0.13377303 -0.2577455 -0.12802938 -0.3099913
0.03210131 -0.25252026 -0.22441332 -0.14097029 -0.1588382 -0.045804717 -0.063012965 -0.1632633
-0.06466935 -0.203863 -0.038834646 -0.20880032 0.08441165 -0.061851166 -0.1481945 0.05492018
0.29195887 -0.011434026 -0.14890632 -0.16374922 -0.037675958 -0.28669536 -0.17472574 -0.26905513
-0.30335155 -0.22886476 0.35140756 -0.0067252996 0.30992034 -0.27495006 -0.32477108 -0.2027228
-0.061399654 -0.27234346 -0.15064369 -0.30549598 0.20392294 -0.0095632905 -0.2367909 -0.118823454
-0.27646026 0.103872895 -0.092784226 -0.23013993 0.29423326 -0.2618839 0.047365546 -0.2551096
-0.13604032 -0.0036523282 0.19211191 0.28659436 -0.36369598 -0.07618998 -0.18412761 -0.022745574
-0.10811528 -0.021415731 -0.29491967 0.080498956 -0.05898564 -0.07494492 0.13897675 -0.31148988
-0.21713783 0.013903683 0.08459722 0.17643242 0.3754094 -0.16927709 -0.05125392 0.4683886
-0.23388508 0.13042673 0.045470923 0.108035564 -0.19787443 -0.22065046 -0.22347406 -0.21977745
0.086734 -0.18020149 -0.13454857 -0.17759596 0.03148127 -0.06251646 -0.28737667 -0.15545507
-0.16709849 0.13229929 -0.14133306 -0.035162285 -0.0782324 -0.014172219 0.33372515 -0.2607936
-0.03428526 -0.114838116 0.34154922 -0.14122738 -0.19800444 -0.15734701 0.08551074 -0.26711944
0.08718804 0.010555345 -0.06258389 -0.09025131 -0.09594184 -0.10507868 0.06268708 -0.20017312
0.41911983 -0.23776051 0.24090575 -0.27315167 0.0683589 -0.3292718 -0.04603168 -0.39388832
-0.2746978 -0.40843514 -0.16656618 -0.24845406 -0.0077509503 -0.15799569 -0.34279513 -0.12096265
0.05380224 -0.1513216 -0.12916403 -0.006080685 -0.015979148 0.12386423 -0.13786116 -0.029743714
-0.009433492 -0.28839833 -0.08853843 -0.022626078 -0.3989439 -0.045625374 0.3953331 0.13003926
0.16590996 -0.3206029 0.11341558 -0.4551101 0.1600745 0.04762435 -0.09267786 -0.037206165
0.14742006 -0.03338123 0.1962301 -0.28033468 -0.17628622 -0.089515455 0.024056416 -0.27331737
-0.21102011 -0.04938833 -0.3364502 -0.094239034 -0.107803404 -0.115983896 -0.2587416 -0.20390971
-0.3033211 0.11308696 0.06654602 -0.33393094 0.25492436 -0.24274443 -0.3601798 -0.30651334
-0.24917985 -0.12334111 -0.049304985 0.26830015 -0.22545901 -0.27171263 -0.21705924 -0.050349165
0.2231493 -0.1453416 -0.25941283 -0.2707684 0.100439824 -0.025174865 -0.18548644 0.07573665
-0.10385478 -0.121213265 -0.16994824 0.22511767 -0.09250129 -0.0049277395 -0.044402093 -0.11639479
0.110528566 -0.37584162 -0.20375636 0.21912919 -0.06716147 0.15788047 -0.40579703 -0.26122507
0.39697394 -0.09062779 -0.15678693 0.11319611 -0.28179312 0.073651806 0.13629954 -0.023010824
00000000: d24f c5bd 5e42 64be c776 64bd afec 95bc
00000010: ef69 dc3e 8881 ee3e c3a0 6dbe ffb5 b33d
00000020: bbea 14be 1d39 903d 16b2 48be 4460 653d
00000030: 5c12 8e3e 3a51 88bd e8df eabc 6392 42be
00000040: 54ea afbe 0cec 17bd b155 873d 791f 3e3d
00000050: 792f 04be f280 55be cbbf 8fbd 496e b9bd
00000060: 0882 43be 2bc0 023f e02c 26be ad3f 95be
00000070: b207 9dbe 7a29 95be 6a6b 1b3c d30c 83be
00000080: 4c4f 9f3e c17e 4abd 6411 7e3e 88bf a13d
00000090: ccfb 08be 38f7 83be 221a 03be 2eb7 9ebe
000000a0: aa7c 033d 564a 81be 9bcc 65be 845a 10be
000000b0: 7ba6 22be ba9d 3bbd f10c 81bd 7f2e 27be
000000c0: 5d71 84bd 76c1 50be 1411 1fbd c0cf 55be
000000d0: 04e0 ac3d a657 7dbd 4dc0 17be fcf3 603d
000000e0: a27b 953e c855 3bbc e67a 18be e0ad 27be
000000f0: 1b52 1abd bcc9 92be 4eeb 32be 98c1 89be
00000100: e550 9bbe 865b 6abe b1eb b33e e75f dcbb
00000110: e1ad 9e3e 41c6 8cbe 6548 a6be 9196 4fbe
00000120: 347e 7bbd 9a70 8bbe 5742 1abe f869 9cbe
00000130: 2dd1 503e 59af 1cbc 5079 72be b659 f3bd
00000140: 338c 8dbe 50bb d43d a805 bebd cda9 6bbe
00000150: bea5 963e a615 86be 6002 423d ba9d 82be
00000160: 274e 0bbe e65b 6fbb fcb8 443e 7fbc 923e
00000170: 5c36 babe 7e09 9cbd f38b 3cbe ed54 babc
00000180: 8b6b ddbd 0b70 afbc b6ff 96be a3dc a43d
00000190: ed9a 71bd b97c 99bd ec4f 0e3e 9a7b 9fbe
000001a0: 6159 5ebe 46cc 633c 4f41 ad3d b3aa 343e
000001b0: a935 c03e f956 2dbe a1ef 51bd a1d0 ef3e
000001c0: 927f 6fbe 968e 053e b83f 3a3d c041 dd3d
000001d0: 989f 4abe 32f2 61be 62d6 64be 570d 61be
000001e0: 98a1 b13d bd86 38be 1ac7 09be b7db 35be
000001f0: 81f2 003d a108 80bd 0923 93be 9d2f 1fbe
00000200: de1b 2bbe 7779 073e 9db9 10be 5406 10bd
00000210: 4f38 a0bd 9832 68bc 06de aa3e bd86 85be
00000220: b36e 0cbd 3f30 ebbd 8adf ae3e e99d 10be
00000230: adc1 4abe 931f 21be 4120 af3d e1c3 88be
00000240: a58f b23d 53f0 2c3c fc2b 80bd aed5 b8bd
00000250: 287d c4bd 7e33 d7bd 1562 803d 2ffa 4cbe
00000260: e096 d63e 7e77 73be ffaf 763e 89da 8bbe
00000270: c0ff 8b3d 5096 a8be b78b 3cbd bbab c9be
00000280: 31a5 8cbe 691e d1be 5390 2abe be6a 7ebe
00000290: affb fdbb 9fc9 21be d882 afbe 44bb f7bd
000002a0: bd5f 5c3d 0df4 1abe 9343 04be 7c40 c7bb
000002b0: b4e6 82bc 88ac fd3d 7a2b 0dbe 17a9 f3bc
000002c0: ef8e 1abc f2a8 93be a353 b5bd 535a b9bc
000002d0: 6042 ccbe ace1 3abd 1a69 ca3e 0329 053e
000002e0: 4de4 293e 1026 a4be 6d46 e83d 3104 e9be
000002f0: 92ea 233e c011 433d e4cd bdbd 7e65 18bd
00000300: 49f5 163e c2ba 08bd 8bf0 483e 0788 8fbe
00000310: 6084 34be e153 b7bd f611 c53c 41f0 8bbe
00000320: a815 58be 6b4b 4abd 3343 acbe 6500 c1bd
00000330: 08c8 dcbd f788 edbd c779 84be b5cd 50be
00000340: e74c 9bbe 239a e73d 4849 883d fff8 aabe
00000350: 7285 823e ff91 78be 7d69 b8be 51ef 9cbe
00000360: 0129 7fbe 449a fcbd 06f4 49bd a35e 893e
00000370: bade 66be eb1d 8bbe c744 5ebe ed3a 4ebd
00000380: 4081 643e 6ed4 14be c2d1 84be 28a2 8abe
00000390: 65b3 cd3d 853b cebc 28f0 3dbe d11b 9b3d
000003a0: d1b1 d4bd a93e f8bd e906 2ebe 3f85 663e
000003b0: 5171 bdbd e078 a1bb f8de 35bd 6460 eebd
000003c0: cd5c e23d 506e c0be 82a5 50be 6763 603e
000003d0: f48b 89bd 6bab 213e a1c4 cfbe 4bbf 85be
000003e0: 2b40 cb3e 109b b9bd c18c 20be 5dd3 e73d
000003f0: 3047 90be c2d6 963d 1b92 0b3e 3281 bcbc

linear2.weight f4 [3, 256]
0.029519316 0.10680622 0.013167201 0.012343418 -0.28540233 -0.17328732 0.020669928 -0.028303625
0.01787208 0.095933996 0.014479648 0.18618837 -0.149857 0.04966214 -0.1725433 0.048588324
-0.07184767 0.06295913 -0.20027289 0.05581612 0.059769176 -0.055589117 0.16913551 0.004267538
0.0037974773 -0.21507397 0.030218745 -0.05877972 0.22362171 -0.09902764 0.05580187 0.08372517
-0.115681045 -0.00014523881 -0.16382332 0.12818845 0.025336428 -0.059784397 0.02245867 0.09965154
-0.18056405 0.0009439921 -0.0060409163 0.03141459 0.04627894 0.004060679 0.026503297 0.030438745
0.09173244 0.06879501 -0.09145404 0.05792213 0.12533987 -0.00035603342 -0.22444387 -0.30502737
-0.10392199 -0.111238204 0.059282556 0.05487625 -0.27235478 0.14686799 -0.036122758 0.003934462
-0.010537946 0.10396718 -0.17778467 0.03987322 -0.3209846 -0.0008445612 0.07047104 0.027031574
0.057479456 -0.0035353263 0.0055949017 0.19789085 -0.11004326 -0.08308396 0.15353496 -0.007843904
-0.036719948 -0.15874313 -0.0021167523 -0.0071170502 -0.19416602 0.046871442 -0.13591127 0.010889099
0.099735714 0.009148436 0.29241925 0.3056267 -0.015038785 0.049367797 -0.00079886185 -0.0043129874
-0.017352527 -0.040992003 0.0013104889 0.1816796 0.051157568 0.17906186 -0.28015074 0.025497518
-0.020044053 0.17273761 -0.123774424 0.030794393 -0.05135511 0.11845907 -0.021307942 -0.1756413
0.13587804 -0.1732338 0.050808795 -0.20622088 -0.0031144863 -0.05323632 0.008449247 0.03640652
-0.15002446 -0.15117934 0.004582155 0.15445217 -0.02752118 0.006064464 0.062009253 -0.055251762
-0.01651934 0.1338413 0.15063584 -0.10240299 -0.10748528 -0.038894523 -0.14631775 -0.08253355
0.007918104 -0.013061655 -0.26020113 -0.042475626 0.11616259 0.00013234348 0.14743342 0.001000311
0.07793221 0.0315839 0.014920704 0.06492437 -0.033497438 -0.14172845 -0.041680958 0.06915822
-0.21911639 0.18977587 -0.15832904 0.013657325 -0.051094823 -0.033009388 0.03742137 -0.013747772
0.2156434 0.028478926 0.024578802 0.057517156 -0.018020231 -0.099845685 0.091458224 0.023592819
-0.18348314 0.197039 0.007476133 -0.014247423 -0.016275818 -0.08064861 0.06178455 -0.020599933
-0.29774848 0.020894859 -0.15665969 -0.034133807 -0.048428524 0.19838066 -0.25885928 -0.042067487
-0.061962593 0.07193604 -0.025112981 0.22009179 0.039682336 0.111230224 0.021770611 -0.050505336
-0.14435625 0.015689585 0.28386632 0.08255994 -0.023454376 -0.013650096 0.14050832 -0.027435828
0.008252396 0.029198138 0.07276633 0.037532955 -0.081739366 0.03238148 0.07478673 -0.045460626
0.19769272 0.106492974 -0.06265704 0.19625959 -0.08190723 0.15431896 -0.07269778 0.0666464
0.03393731 0.028051084 0.0066613816 -0.19565275 0.063231945 0.1812373 0.14640473 0.15799336
-0.115705214 0.16791086 -0.0033814455 -0.006360756 0.30091876 -0.14334542 -0.036363132 -0.04263075
-0.028790304 0.014299599 0.017666541 0.28623685 -0.020446075 0.038991492 0.15738727 -0.030366689
-0.24390854 0.005892543 -0.07354803 0.17732948 -0.028689655 -0.113413446 -0.050118446 0.018740984
-0.20378716 0.010865138 0.1039439 -0.040012404 -0.006667323 -0.1955659 -0.12091041 -0.14340238
00000000: 7ed2 f13c 38bd da3d 3ebb 573c 0c3c 4a3c
00000010: 4120 92be 3b72 31be fb53 a93c 01dd e7bc
00000020: 7868 923c 0b79 c43d 0c3c 6d3c 2aa8 3e3e
00000030: 1d74 19be 876a 4b3d 31af 30be 8d04 473d
00000040: df24 93bd b7f0 803d 5614 4dbe 729f 643d
00000050: 86d0 743d 6ab1 63bd dc31 2d3e b4d6 8b3b
00000060: 19df 783b 5a3c 5cbe 4d8d f73c 01c3 70bd
00000070: 17fd 643e 01cf cabd 8090 643d 1a78 ab3d
00000080: 2fea ecbd 3f4b 18b9 4dc1 27be d543 033e
00000090: 578e cf3c 7ce0 74bd 3ffb b73c 1b16 cc3d
000000a0: c8e5 38be 3d76 773a e1f2 c5bb 96ac 003d
000000b0: fc8e 3d3d 720f 853b 711d d93c ad5a f93c
000000c0: 38de bb3d 66e4 8c3d 414c bbbd c13f 6d3d
000000d0: 1859 003e ffa9 bab9 9dd4 65be 8c2c 9cbe
000000e0: 0dd5 d4bd dbd0 e3bd 44d2 723d ebc5 603d
000000f0: 1672 8bbe 9064 163e 75f5 13bd a9ec 803b
00000100: 59a7 2cbc bfec d43d 2f0d 36be 1a52 233d
00000110: 1858 a4be 8b65 5dba 1f53 903d 5271 dd3c
00000120: 946f 6b3d efb0 67bb 7055 b73b e6a3 4a3e
00000130: 5c5e e1bd ec27 aabd 4538 1d3e b883 00bc
00000140: a867 16bd 8f8d 22be 36b9 0abb 2536 e9bb
00000150: 75d3 46be 45fc 3f3d 532c 0bbe 3168 323c
00000160: 3d42 cc3d 52e3 153c fab7 953e 1a7b 9c3e
00000170: 3c65 76bc e335 4a3d b66a 51ba f653 8dbb
00000180: e326 8ebc 3be7 27bd b6c4 ab3a 380a 3a3e
00000190: 998a 513d fe5b 373e eb6f 8fbe 2ce0 d03c
000001a0: 6d33 a4bc 21e2 303e 727d fdbd 8644 fc3c
000001b0: bc59 52bd ab9a f23d fe8d aebc 50db 33be
000001c0: 9d23 0b3e 3464 31be e21c 503d 912b 53be
000001d0: 691c 4cbb 540e 5abd b66e 0a3c 011f 153d
000001e0: 03a0 19be c2ce 1abe e725 963b b628 1e3e
000001f0: 1974 e1bc 69b8 c63b 6afd 7d3d ac4f 62bd
00000200: 9153 87bc b20d 093e 4840 1a3e a9b8 d1bd
00000210: 3e21 dcbd dd4f 1fbd 52d4 15be 5a07 a9bd
00000220: efba 013c 8d00 56bc 1539 85be ecfa 2dbd
00000230: a7e6 ed3d afc5 0a39 c9f8 163e de1c 833a
00000240: ec9a 9f3d 1f5e 013d f875 743c 11f7 843d
00000250: 9c34 09bd 4321 11be a7b9 2abd d3a2 8d3d
00000260: 0c60 60be 9b54 423e 0221 22be f9c2 5f3c
00000270: ce48 51bd da34 07bd 2747 193d 563e 61bc
00000280: a0d1 5c3e a34c e93c 7c59 c93c 1c97 6b3d
00000290: 2a9f 93bc e57b ccbd 734e bb3d ba45 c13c
000002a0: 01e3 3bbe 97c4 493e 59fa f43b 066e 69bc
000002b0: dd54 85bc 192b a5bd cc11 7d3d 31c1 a8bc
000002c0: 7d72 98be b22b ab3c 666b 20be e4cf 0bbd
000002d0: fd5c 46bd 4d24 4b3e 3489 84be f54e 2cbd
000002e0: 7dcc 7dbd 3453 933d bdb9 cdbc be5f 613e
000002f0: f289 223d accc e33d 4858 b23c afde 4ebd
00000300: 20d2 13be 7287 803c ed56 913e 3015 a93d
00000310: 6423 c0bc a7a4 5fbc 6ae1 0f3e 1ac1 e0bc
00000320: 0f35 073c ef30 ef3c 8306 953d 28bc 193d
00000330: f866 a7bd 71a2 043d c929 993d ec34 3abd
00000340: f66f 4a3e fd18 da3d 5652 80bd 46f8 483e
00000350: fabe a7bd ca05 1e3e 93e2 94bd e87d 883d
00000360: d901 0b3d 63cb e53c b847 da3b 3259 48be
00000370: c07f 813d 4596 393e 1feb 153e 03c9 213e
00000380: dbf6 ecbd d3f0 2b3e 3e9b 5dbb e36d d0bb
00000390: 0612 9a3e 24c9 12be 82f1 14bd 959d 2ebd
000003a0: a5d9 ebbc de48 6a3c 6cb9 903c a38d 923e
000003b0: 877e a7bc 8bb5 1f3d 212a 213e 90c3 f8bc
000003c0: 29c3 79be 3c16 c13b 59a0 96bd dc95 353e
000003d0: 9106 ebbc 4f45 e8bd 0049 4dbd b186 993c
000003e0: 95ad 50be b103 323c 8ae0 d43d 0ce4 23bd
000003f0: 8f79 dabb 6d42 48be e19f f7bd 13d8 12be

linear2.bias f4 [3]
-0.047428843 0.032854274 -0.060572997
00000000: bf44 42bd 3492 063d 641b 78bd
