snake_game/TRAINED_MODEL/model.pt (torch, 16787 bytes, 4 tensors)

linear1.weight f4 [256, 11]
-0.18697916 -0.19563624 0.11587628 0.04896784 -0.095390365 -0.032900006 0.10415773 -0.21511632
-0.051161636 -0.11449507 -0.28774303 0.08811875 0.28103834 -0.22429268 0.13925496 -0.11553089
-0.016739767 -0.27872688 -0.28772035 -0.20858805 -0.16137156 -0.027561512 0.0755761 0.26102722
-0.09733221 -0.205262 0.087608516 -0.4474274 0.29341346 -0.46988547 0.13742365 -0.25325358
-0.11477506 0.0813628 -0.2975275 0.52397996 0.2598892 -0.16182783 -0.059694316 0.020727573
-0.2003805 0.11931858 0.24337187 -0.07965545 -0.17889109 -0.21195844 -0.1984818 -0.2815727
0.035499662 0.029073894 -0.26535326 0.15166101 -0.13723016 -0.18626203 -0.024474591 -0.19274949
-0.14974988 0.11912447 0.15431337 0.24474521 -0.30835357 -0.2029916 -0.47121632 -0.48787755
0.17353715 0.054675665 0.017589793 0.13878302 0.031070117 -0.3880958 0.46202478 0.25272152
0.31963903 0.41494232 -0.41396934 -0.17750058 -0.33373663 -0.19013797 0.26858294 -0.058746923
-0.30575192 -0.27088055 -0.0058785607 0.19984227 -0.3565182 -0.36166313 0.17151953 0.14228079
0.18295929 -0.38707495 0.5209608 -0.3363565 -0.03834015 -0.04009178 -0.17737095 -0.15541017
-0.4091239 -0.11553111 0.16866699 -0.42346522 0.5615566 0.013758579 0.33704057 0.18542849
0.17297634 -0.16106974 -0.025154537 -0.055822767 -0.25992063 -0.38300756 -0.030473284 -0.20082483
0.2428723 -0.032441556 -0.21798776 -0.18000513 0.058254674 0.19439426 0.38623393 0.3302246
0.08513333 0.48693573 0.39914045 -0.54507446 0.031021114 0.05501489 -0.27980858 -0.12412765
0.09517267 0.383301 0.41695392 0.32688248 -0.17013738 -0.061478764 -0.06064406 -0.037298143
-0.030435443 -0.103210256 -0.01480937 0.013948441 -0.027130783 -0.2279431 -0.22677132 -0.4695581
0.4199055 -0.056830797 -0.084841855 -0.09041092 -0.20468108 -0.15897201 -0.02950765 -0.0638202
0.115910776 0.18086371 0.42145273 0.20131852 0.14612885 -0.030696275 0.0067410767 -0.0014382231
-0.18681507 0.18506028 0.27374992 0.19805172 0.047025412 0.030470371 0.43168005 -0.16122225
0.15339224 0.011080736 0.05249409 0.12232361 0.15580982 0.2761729 -0.009553118 0.09756548
-0.12616687 -0.3339301 -0.10503026 0.075692 -0.2051478 -0.28754872 0.045083437 -0.23371023
0.15075177 0.19770768 -0.3529697 0.6437813 -0.014469996 -0.045779612 0.024890581 0.2662474
0.06834852 -0.059944585 0.047542248 -0.24610853 0.010759361 0.14849551 0.14588311 -0.07186117
-0.095100164 -0.22209711 0.14304295 0.2138263 0.12309582 -0.099455215 -0.013039999 -0.124758616
-0.10796601 0.26271576 -0.29235163 0.2547663 0.011147285 -0.041669752 0.10175398 -0.00425226
0.16221488 0.37056053 0.094951764 0.09114071 -0.2241791 0.062139176 0.20201662 -0.5004066
-0.32758474 0.41715616 -0.14112435 -0.44268212 -0.3490003 0.34192425 0.018491738 0.602891
0.03721499 -0.09678207 -0.20529164 0.2736846 -0.03218423 -0.1652703 -0.028054537 -0.42638212
-0.15605018 -0.018467069 -0.08222885 -0.08723666 0.5096215 -0.17903979 -0.11796306 0.25066546
0.15028943 -0.10433273 0.33850697 -0.1417232 -0.1304851 -0.10346981 -0.21725905 0.13532363
00000000: 7777 3fbe de54 48be 8b50 ed3d 8092 483d
00000010: 065c c3bd 28c2 06bd a650 d53d 7447 5cbe
00000020: dd8e 51bd 647c eabd 0e53 93be 9a77 b43d
00000030: 42e4 8f3e fbac 65be da98 0e3e 769b ecbd
00000040: d621 89bc 4ab5 8ebe 1550 93be 1b98 55be
00000050: 963e 25be aec8 e1bc a4c7 9a3d 5ca5 853e
00000060: 1c56 c7bd 3430 52be 186c b33d 3415 e5be
00000070: 4a3a 963e d494 f0be c9b8 0c3e 74aa 81be
00000080: 300f ebbd 8aa1 a63d 8655 98be 8d23 063f
00000090: 3210 853e 32b6 25be 0782 74bd dfcc a93c
000000a0: 8c30 4dbe 4d5d f43d 7a36 793e 6622 a3bd
000000b0: 3a2f 37be a20b 59be d03e 4bbe 4c2a 90be
000000c0: 1868 113d 602c ee3c 62dc 87be 064d 1b3e
000000d0: 1086 0cbe 79bb 3ebe f07e c8bc 1f60 45be
000000e0: 0858 19be 88f7 f33d 5304 1e3e 7d9e 7a3e
000000f0: 85e0 9dbe 08dd 4fbe 4443 f1be 16cb f9be
00000100: b9b3 313e 97f3 5f3d 7818 903c 231d 0e3e
00000110: c286 fe3c 7eb4 c6be 838e ec3e b764 813e
00000120: baa7 a33e 5273 d43e caf3 d3be b6c2 35be
00000130: 87df aabe 87b3 42be b483 893e 9da0 70bd
00000140: 848b 9cbe dbb0 8abe f1a0 c0bb 74a3 4c3e
00000150: 8e89 b6be e92b b9be d1a2 2f3e 0eb2 113e
00000160: ae59 3b3e b02e c6be b05d 053f eb36 acbe
00000170: 900a 1dbd 4737 24bd bba0 35be d823 1fbe
00000180: b078 d1be 939b ecbd 0ab7 2c3e 6fd0 d8be
00000190: 2cc2 0f3f aa6b 613c 9590 ac3e f7e0 3d3e
000001a0: b620 313e 77ef 24be e310 cebc 6aa6 64bd
000001b0: 5114 85be 9119 c4be 1ca3 f9bc 06a5 4dbe
000001c0: 84b3 783e 70e1 04bd 2f38 5fbe 4453 38be
000001d0: 749c 6e3d 4a0f 473e 74c0 c53e 3313 a93e
000001e0: 625a ae3d a44f f93e 235c cc3e 008a 0bbf
000001f0: fe1f fe3c 4b57 613d 1243 8fbe a336 febd
00000200: e4e9 c23d 0740 c43e fc7a d53e 245d a73e
00000210: 7e38 2ebe 28d1 7bbd e865 78bd f0c5 18bd
00000220: c053 f9bc e65f d3bd 00a3 72bc 0088 643c
00000230: 6041 debc ea69 69be be36 68be eb69 f0be
00000240: dbfd d63e 69c7 68bd 91c1 adbd 5c29 b9bd
00000250: eb97 51be 8fc9 22be 07ba f1bc 2ab4 82bd
00000260: a162 ed3d 5634 393e a7c8 d73e 7126 4e3e
00000270: cda2 153e c176 fbbc 40e4 dc3b c282 bcba
00000280: 734c 3fbe 7180 3d3e f328 8c3e 12ce 4a3e
00000290: b89d 403d 009d f93c 2b05 dd3e 7217 25be
000002a0: db12 1d3e fa8b 353c 0b04 573d cd84 fa3d
000002b0: 9c8c 1f3e 8966 8d3e ae84 1cbc 69d0 c73d
000002c0: e331 01be e3f8 aabe 1b1a d7bd 6804 9b3d
000002d0: 4412 52be 9639 93be 69a9 383d bc51 6fbe
000002e0: ac5e 1a3e e273 4a3e 72b8 b4be dace 243f
000002f0: 9013 6dbc 6783 3bbd 55e7 cb3c 9451 883e
00000300: 4ffa 8b3d 7488 75bd a9bb 423d e003 7cbe
00000310: 0848 303c 350f 183e 6262 153e f32b 93bd
00000320: e0c3 c2bd 6d6d 63be da79 123e 48f5 5a3e
00000330: a919 fc3d 2daf cbbd b8a5 55bc 7281 ffbd
00000340: 491d ddbd ae82 863e 1daf 95be ba70 823e
00000350: 1aa3 363c e7ad 2abd 6464 d03d 8b56 8bbb
00000360: a81b 263e 1cba bd3e 1276 c23d fba7 ba3d
00000370: 358f 65be a685 7e3d 72dd 4e3e a61a 00bf
00000380: 30b9 a7be 7e95 d53e e782 10be 3ba7 e2be
00000390: 2bb0 b2be b210 af3e fc7b 973c 1157 1a3f
000003a0: bf6e 183d ae35 c6bd f937 52be 6320 8c3e
000003b0: 9cd3 03bd 9e3c 29be a1d2 e5bc c24e dabe
000003c0: 9ecb 1fbe 4048 97bc 9967 a8bd 22a9 b2bd
000003d0: 8e76 023f 3556 37be 9e96 f1bd 3957 803e
000003e0: 79e5 193e 66ac d5bd c950 ad3e e31f 11be
000003f0: e39d 05be fbe7 d3bd 2879 5ebe 4792 0a3e

linear1.bias f4 [256]
-0.17696983 -0.17679223 0.14527592 -0.1253038 -0.23962678 0.1269088 -0.042662766 0.15328489
0.07533102 0.18382792 -0.17517956 -0.21964759 -0.039943814 0.27348506 0.02110856 -0.0025424517
0.096881256 -0.08567572 -0.29092774 -0.04134208 -0.21908744 0.136713 -0.14086555 0.14826901
-0.014733243 0.52111477 -0.20631579 -0.26844832 0.37406075 -0.040791582 -0.20633452 -0.024329966
-0.39368284 -0.16579667 -0.10696896 0.16507924 0.19132207 -0.085965104 0.28598282 -0.16715091
0.017306691 -0.2581506 -0.08849362 -0.21857457 -0.089987956 -0.06322481 -0.016047139 -0.18248251
0.20479967 -0.20536228 0.043688323 -0.25809553 0.12445384 0.070478715 -0.13347211 0.30570555
-0.107534245 -0.09465995 0.06750471 -0.24905968 -0.2209248 0.30823612 -0.24553064 -0.10196921
-0.14210713 -0.21318671 -0.119896844 -0.42479983 0.04743366 0.044706564 0.00047894032 -0.23962833
0.17683278 0.34619716 0.04414252 0.040859338 -0.10035063 0.036691744 -0.038242493 0.11081141
0.13481773 -0.12045395 -0.32605603 -0.123663 -0.009025806 -0.1426892 -0.06730704 -0.15360822
0.19843113 0.08025221 0.07923323 0.06784876 -0.095445216 0.1652453 0.049500342 -0.14095418
0.24560033 -0.17248283 -0.33956355 -0.1378057 -0.25984672 0.09874434 0.41256398 -0.3539584
-0.29258022 -0.072558604 -0.22785948 0.08455917 -0.20650952 -0.2531205 0.17746459 -0.0016091482
0.21849397 -0.36229852 -0.2222774 -0.0023880978 0.015098248 0.33320683 -0.006533642 -0.24045262
0.083845764 -0.19269896 0.11509736 0.0012221364 -0.20892689 -0.08040684 -0.12645423 -0.060252856
-0.007985606 -0.009119051 0.024537839 -0.41028684 0.080350265 0.0063224565 -0.21945785 -0.27515945
0.33262187 0.023761246 0.08917652 -0.043814015 0.048901804 0.105413444 -0.16137566 -0.029117614
0.09218745 0.20674343 0.26434228 -0.18488228 0.010055656 0.3844165 -0.101289384 -0.2827899
0.504787 -0.16439551 0.10025378 0.06717088 -0.034249358 0.19324026 -0.07934234 -0.10326335
-0.15809032 0.12838452 0.066740096 -0.018476516 -0.14429091 0.103535965 0.08022759 -0.19196619
0.223668 -0.1690204 -0.08005107 0.17220649 -0.017495913 0.049069867 0.26850086 0.13051377
-0.0065442566 -0.17507434 -0.34593502 -0.25216484 -0.0954719 0.07424579 -0.03210755 -0.043079074
-0.05800009 0.1619169 -0.21637556 0.0056535625 -0.05999146 0.07202759 -0.1088551 -0.12388634
-0.06274053 0.3685655 0.047608506 -0.043277375 0.12168425 0.1424534 -0.41078404 -0.065057196
0.18291113 -0.16909468 -0.29057103 -0.09877079 0.04956866 -0.044221144 0.157589 -0.19254765
0.108424924 -0.38442034 -0.103314616 0.0099400915 0.018951384 0.032640047 -0.11678769 -0.06443973
0.044197336 -0.16882001 -0.14840785 -0.20030983 0.028151002 0.006964449 0.12967367 0.04607472
0.15124969 -0.12165596 -0.17589724 -0.31614918 -0.10919857 -0.18570457 -0.06952784 0.1510013
-0.2271198 0.1624595 -0.017220533 -0.15145987 -0.043476805 0.018374959 -0.025802305 -0.27438667
-0.04495502 -0.085438184 0.18669456 0.0076117064 0.063633755 0.012302629 0.051104233 -0.19309512
-0.26881108 0.20471792 -0.044951454 0.08665909 0.14039832 -0.16345748 0.30470034 0.104340985
00000000: 9437 35be 0609 35be 36c3 143e a44f 00be
00000010: b960 75be 61f4 013e 27bf 2ebd b7f6 1c3e
00000020: 2647 9a3d 633d 3c3e 4562 33be 4ceb 60be
00000030: 209c 23bd 3c06 8c3e dceb ac3c 439f 26bb
00000040: ae69 c63d c076 afbd 7bf4 94be 5056 29bd
00000050: 7558 60be 7efe 0b3e 0f3f 10be d5d3 173e
00000060: b363 71bc c767 053f 7244 53be 0f72 89be
00000070: e484 bf3e 1315 27bd 5b49 53be a34f c7bc
00000080: cc90 c9be 9ac6 29be 8b12 dbbd 880a 293e
00000090: efe9 433e 790e b0bd 576c 923e 9c29 2bbe
000000a0: c3c6 8d3c 512c 84be 253c b5bd 03d2 5fbe
000000b0: 9b4b b8bd 027c 81bd 4a75 83bc b2dc 3abe
000000c0: 01b7 513e 7d4a 52be 87f2 323d 1925 84be
000000d0: a8e1 fe3d 2557 903d eaac 08be 7085 9c3e
000000e0: ea3a dcbd 13dd c1bd e93f 8a3d 8009 7fbe
000000f0: 1c3a 62be 20d1 9d3e 626c 7bbe 3cd5 d0bd
00000100: 8884 11be 9e4d 5abe 7a8c f5bd 5d7f d9be
00000110: cc49 423d 3b1e 373d 481a fb39 2161 75be
00000120: a713 353e c140 b13e c9ce 343d 1f5c 273d
00000130: a284 cdbd 154a 163d 29a4 1cbd 18f1 e23d
00000140: a90d 0a3e 8fb0 f6bd d1f0 a6be 0743 fdbd
00000150: f9e0 13bc 1e1d 12be 46d8 89bd 794b 1dbe
00000160: 8831 4b3e 455b a43d 0845 a23d 4af4 8a3d
00000170: c878 c3bd 1036 293e dfc0 4a3d 4b56 10be
00000180: a77e 7b3e 579f 30be 46db adbe f01c 0dbe
00000190: a10a 85be 793a ca3d 963b d33e 093a b5be
000001a0: 13cd 95be 9b99 94bd ff53 69be 5c2d ad3d
000001b0: 3b77 53be 0399 81be 47b9 353e 0eea d2ba
000001c0: e2bc 5f3e 317f b9be b09c 63be a281 1cbb
000001d0: a45e 773c 169a aa3e 2918 d6bb 3639 76be
000001e0: 54b7 ab3d e052 45be 2ab8 eb3d 1830 a03a
000001f0: eef0 55be 57ac a4bd 387d 01be b3cb 76bd
00000200: 0fd6 02bc 1268 15bc 9403 c93c 1e11 d2be
00000210: ae8e a43d 9c2c cf3b 8fb9 60be b3e1 8cbe
00000220: 6a4d aa3e f2a6 c23c 2ea2 b63d 5376 33bd
00000230: 424d 483d 01e3 d73d a93f 25be 1088 eebc
00000240: c6cc bc3d 8db4 533e df57 873e c851 3dbe
00000250: 7ac0 243c 3dd2 c43e cf70 cfbd d6c9 90be
00000260: b939 013f 4c57 28be db51 cd3d e390 893d
00000270: 0e49 0cbd c6e0 453e 3d7e a2bd bc7b d3bd
00000280: 6ee2 21be 3b77 033e 08af 883d 105c 97bc
00000290: ffc0 13be aa0a d43d 5d4e a43d c992 44be
000002a0: 3909 653e af13 2dbe d1f1 a3bd e656 303e
000002b0: 9753 8fbc 7cfd 483d f278 893e 67a5 053e
000002c0: 3471 d6bb b046 33be 651e b1be c01b 81be
000002d0: c686 c3bd 2d0e 983d 3583 03bd af73 30bd
000002e0: 8191 6dbd 8bcd 253e 8e91 5dbe 8541 b93b
000002f0: 9bb9 75bd 3383 933d 6cef debd 1fb8 fdbd
00000300: 1b7e 80bd 9eb4 bc3e 2301 433d 9e43 31bd
00000310: 9835 f93d 4edf 113e 4952 d2be b53c 85bd
00000320: 0e4d 3b3e 2827 2dbe bac5 94be 5748 cabd
00000330: 8208 4b3d 3b21 35bd 035f 213e 362b 45be
00000340: e30d de3d bed2 c4be 9d96 d3bd c4db 223c
00000350: ef3f 9b3c 92b1 053d 622e efbd faf8 83bd
00000360: 4408 353d 27df 2cbe 3af8 17be 051e 4dbe
00000370: ee9c e63c 0836 e43b 2dc9 043e d8b8 3c3d
00000380: 33e1 1a3e c326 f9bd 681e 34be 4ede a1be
00000390: 80a3 dfbd 5729 3ebe 9d64 8ebd 16a0 1a3e
000003a0: 1892 68be c85b 263e 1312 8dbc 4c18 1bbe
000003b0: bc14 32bd 1587 963c 5b5f d3bc 697c 8cbe
000003c0: c122 38bd 37fa aebd dc2c 3f3e 9f6b f93b
000003d0: 6a52 823d f790 493c ac52 513d baba 45be
000003e0: 9ba1 89be 93a1 513e 041f 38bd 527a b13d
000003f0: 94c4 0f3e 6661 27be af01 9c3e bab0 d53d

linear2.weight f4 [3, 256]
-0.00074059673 -0.04702264 0.19241938 -0.11111957 -0.02622763 -0.62483025 -0.5305966 0.36837542
-0.021223463 0.29320595 -0.1096222 -0.3644794 -0.030137427 0.08721732 -0.084917635 -0.017336577
-0.22227986 -0.25100917 -0.08166816 -0.047241613 0.38429394 -0.29913974 -0.22911121 0.16976662
-0.28595105 0.36188385 0.17085887 -0.22335003 0.23341899 -0.15661946 -0.16946736 -0.09010577
-0.30488586 -0.114671655 -0.20381421 0.16239808 0.28004044 -0.17741902 0.44625846 0.29647067
0.37756154 0.013611138 -0.21450505 -0.21340445 -0.46851507 -0.029809933 -0.20173143 -0.044412337
0.09211057 0.2554261 -0.19218983 0.0796604 0.14588684 0.43867338 0.17900972 0.31866938
0.24903184 -0.397674 -0.43416736 -0.14782473 -0.3684495 0.20502582 -0.30589464 0.0030542775
0.094685666 -0.116858594 -0.10239111 -0.016882237 -0.37382323 -0.07586849 -0.044992343 0.0022454895
0.12546945 0.22577891 -0.1720067 -0.21325336 -0.16301987 0.066996 -0.6935287 0.2437258
0.041604675 0.08661948 -0.12048405 0.24747996 0.029558878 -0.15010498 -0.45199046 -0.12305885
0.23406541 -0.33126077 -0.41245905 0.12190605 -0.36597234 0.15306939 -0.0032129106 -0.18518515
0.37830535 0.018693551 0.01893667 0.00019251788 -0.020637965 0.10628302 0.37035823 -0.20214579
-0.33938512 0.042874794 0.013637146 -0.03502147 0.122614145 0.05987426 0.089019254 -0.13884345
0.15071264 -0.07221538 0.038390774 -0.095636494 0.46387002 0.2783077 -0.010075379 0.20574555
0.3545547 0.12018062 -0.023916079 -0.2699085 0.08140125 -0.19123542 0.019748388 -0.17956316
-0.14781897 0.09939229 -0.2592885 0.08967253 0.548224 -0.08974723 -0.4380664 -0.29122713
0.27280855 0.162464 0.026078783 -0.6005755 0.23275767 -0.13145186 0.28177625 -0.14132927
-0.34576166 -0.25425142 0.2996291 -0.097614035 0.26330993 0.4400247 -0.041913506 0.049533717
0.3199916 -0.14552155 -0.29028153 -0.117391646 -0.27474806 0.09644454 -0.08230003 0.34211364
-0.10340095 0.013859177 0.043857753 0.341519 0.15023634 -0.20137255 -0.22716752 0.16607359
0.33833832 -0.16387951 -0.14820081 0.2651275 -0.44786415 -0.35099512 -0.0129141 0.06928132
-0.3342243 -0.041007925 -0.006089796 -0.30734968 0.48375145 0.13516809 0.23613161 -0.31994453
-0.40970203 0.07542335 -0.27896872 0.03881441 0.24364547 -0.3184437 -0.080880865 -0.03628682
0.19422476 0.39641708 -0.14415322 -0.24499518 -0.030260498 0.099428914 0.023665769 0.058350544
0.15714787 -0.46940866 0.10763577 -0.13652983 0.28300878 0.25527036 0.19972071 0.046145953
-0.3952554 0.07338348 -0.05744783 -0.09805149 -0.7358478 -0.1234259 -0.19768514 0.107236095
-0.3629374 -0.2263379 -0.0395803 -0.13348167 -0.046867296 0.034292247 -0.0031762223 -0.089433566
0.30944583 -0.13514464 -0.10247 -0.012990984 -0.047004834 -0.09048145 -0.19834936 0.11654226
-0.45965815 0.1894413 -0.31020123 -0.047813833 -0.18264858 -0.09909156 0.1370298 0.010463153
0.1607416 -0.19977672 0.087288186 0.0062998543 0.29845136 0.17358087 -0.038009018 -0.28504005
0.045129582 0.33883825 -0.21809871 0.28282312 -0.08401359 -0.24710697 0.18699436 0.15961637
00000000: 9b24 42ba d09a 40bd 9609 453e a892 e3bd
00000010: 54db d6bc e0f4 1fbf 2ed5 07bf b49b bc3e
00000020: d4dc adbc 171f 963e 9b81 e0bd 0b9d babe
00000030: c4e2 f6bc ff9e b23d 4ce9 adbd 7005 8ebc
00000040: 559d 63be 4684 80be a341 a7bd 6c80 41bd
00000050: 2dc2 c43e d828 99be 219c 6abe 4dd7 2d3e
00000060: 2d68 92be d748 b93e a1f5 2e3e dfb5 64be
00000070: 6305 6f3e da60 20be da88 2dbe 6089 b8bd
00000080: 001a 9cbe f9d8 eabd acb4 50be af4b 263e
00000090: 7661 8f3e 55ad 35be fd7b e43e 01cb 973e
000000a0: bf4f c13e 4001 5f3c 36a7 5bbe b286 5abe
000000b0: 35e1 efbe f633 f4bc af92 4ebe b6e9 35bd
000000c0: 77a4 bc3d 36c7 823e 69cd 44be fe24 a33d
000000d0: 5c63 153e cc99 e03e 534e 373e a228 a33e
000000e0: 3402 7f3e ed9b cbbe 2f4b debe 5e5f 17be
000000f0: 6aa5 bcbe 4af2 513e 399e 9cbe 462a 483b
00000100: 8fea c13d 8f53 efbd 6eb2 d1bd 9e4c 8abc
00000110: c265 bfbe f060 9bbd e449 38bd 1029 133b
00000120: 107b 003e 9632 673e 8622 30be 175f 5abe
00000130: aeee 26be 3335 893d 198b 31bf 4293 793e
00000140: aa69 2a3d 8e65 b13d 57c0 f6bd 636b 7d3e
00000150: 7625 f23c 1fb5 19be 4b6b e7be 4706 fcbd
00000160: d8ae 6f3e 039b a9be d52d d3be e1a9 f93d
00000170: ba60 bbbe 39be 1c3e b28f 52bb 2da1 3dbe
00000180: 3db1 c13e 3823 993c 1321 9b3c a0de 4939
00000190: f310 a9bc e9aa d93d 989f bd3e 4eff 4ebe
000001a0: e3c3 adbe 7b9d 2f3d 566e 5f3c ac72 0fbd
000001b0: 201d fb3d b63e 753d ba4f b63d fa2c 0ebe
000001c0: 6a54 1a3e a8e5 93bd a53f 1d3d 11dd c3bd
000001d0: 5f80 ed3e 597e 8e3e 3413 25bc f6ae 523e
000001e0: 3288 b53e 4221 f63d a7eb c3bc 7231 8abe
000001f0: b3b5 a63d 38d3 43be 5fc7 a13c 68df 37be
00000200: db5d 17be 2f8e cb3d 76c1 84be 3ba6 b73d
00000210: 6858 0c3f 65cd b7bd 3d4a e0be b91b 95be
00000220: 90ad 8b3e f65c 263e 2ca3 d53c 51bf 19bf
00000230: 0758 6e3e 519b 06be fa44 903e 9fb8 10be
00000240: ac07 b1be 3e2d 82be fc68 993e dee9 c7bd
00000250: 8fd0 863e eb4a e13e 7fad 2bbd dee3 4a3d
00000260: f0d5 a33e 9a03 15be c89f 94be 086b f0bd
00000270: c7ab 8cbe b784 c53d eb8c a8bd 8529 af3e
00000280: e1c3 d3bd 9a11 633c 30a4 333d 94db ae3e
00000290: 8ed7 193e 9b34 4ebe 9a9e 68be 320f 2a3e
000002a0: ae3a ad3e 08d0 27be f4c1 17be cbbe 873e
000002b0: 734e e5be a2b5 b3be a995 53bc 5de3 8d3d
000002c0: 731f abbe edf7 27bd e98c c7bb f05c 9dbe
000002d0: 45ae f73e 8169 0a3e 7ccc 713e c5cf a3be
000002e0: 77c4 d1be 8f77 9a3d fdd4 8ebe dcfb 1e3d
000002f0: 337e 793e 0d0b a3be dea4 a5bd 7da1 14bd
00000300: dbe2 463e 2ef7 ca3e e79c 13be 04e0 7abe
00000310: dde4 f7bc 63a1 cb3d b7de c13c fb00 6f3d
00000320: 5feb 203e 5556 f0be 2570 dc3d 7ace 0bbe
00000330: 87e6 903e ccb2 823e 9683 4c3e 8a03 3d3d
00000340: ea5e cabe 144a 963d 6a4e 6bbd 38cf c8bd
00000350: 8560 3cbf b8c6 fcbd f96d 4abe 999e db3d
00000360: eed2 b9be 1fc5 67be f41e 22bd 6baf 08be
00000370: ecf7 3fbd 0776 0c3d 2b28 50bb f228 b7bd
00000380: af6f 9e3e 5b63 0abe cbdb d1bd 23d8 54bc
00000390: 2488 40bd 574e b9bd 181c 4bbe b5ad ee3d
000003a0: 5058 ebbe e6fc 413e b2d2 9ebe 70d8 43bd
000003b0: 3b08 3bbe 84f0 cabd 8a51 0c3e a56d 2b3c
000003c0: 7299 243e 4592 4cbe 26c4 b23d 026f ce3b
000003d0: 9ece 983e 2fbf 313e 58af 1bbd c5f0 91be
000003e0: ccd9 383d 357c ad3e 4555 5fbe 31ce 903e
000003f0: 510f acbd 9c09 7dbe 737b 3f3e 7972 233e

linear2.bias f4 [3]
0.06933321 -0.021896867 -0.06902562
00000000: 92fe 8d3d 0f61 b3bc 4e5d 8dbd
